saved_models/generator.pth (torch, 275100 bytes, 6 tensors)

model.0.weight f4 [64, 3, 9, 9]
0	0xbd3c5982	-0.0459838
1	0x3c5eafce	0.01359172
2	0xbd56c30f	-0.052432116
3	0x3c6126bf	0.013742148
4	0xbd4c8158	-0.04992804
5	0xbc6d3d04	-0.014479879
6	0xbc451b1b	-0.012030388
7	0xbd79c571	-0.06097931
8	0x3d132cd5	0.035931427
9	0xbd34ecfb	-0.044171315
10	0xbb9c65a9	-0.004772861
11	0xbb9d7ad3	-0.0048059016
12	0x3d279302	0.040911682
13	0xbd35e06b	-0.044403475
14	0xbb0a53bc	-0.0021107038
15	0xbc9b237b	-0.018937817
16	0x3ca3c0c0	0.019989371
17	0x3d202a72	0.03910298
18	0xbc8ca15a	-0.017166782
19	0x3d3fdbc2	0.046840437
20	0xbcda7d3f	-0.02667105
21	0x3b8688cc	0.004105663
22	0x3d54f18e	0.051988177
23	0xbcf78b05	-0.030217657
24	0xbc543d33	-0.012954044
25	0x3c81a960	0.015827835
26	0xbc2fc17c	-0.010727283
27	0x3731a623	1.0588704e-05
28	0xbd836e45	-0.064175166
29	0x3d342d50	0.043988526
30	0xbd4f8e5b	-0.05067287
31	0xbd15cb06	-0.03657057
32	0xbbe7f97a	-0.0070793005
33	0x3d62488c	0.055244967
34	0x3cd06a57	0.025441332
35	0xbd8fa032	-0.07012977
36	0x3cc40855	0.023929754
37	0x3d418c57	0.04725298
38	0xbd0d50f9	-0.03450105
39	0x3d39bc8c	0.045345828
40	0xbc9e0c14	-0.019292869
41	0x3d079e7b	0.033110123
42	0xbb944ae1	-0.004525528
43	0xbcfd2de4	-0.030905671
44	0xbd3da6c2	-0.04630161
45	0xbd07f3e2	-0.03319157
46	0x3ca35235	0.01993666
47	0x3c3761fa	0.011192793
48	0xbd225b12	-0.039637633
49	0x3c3b6cd6	0.011439523
50	0xbd7be46e	-0.061497144
51	0xbd87b924	-0.0662711
52	0xba320208	-0.0006790464
53	0x3d349e10	0.044096053
54	0x3d063b37	0.032771315
55	0x3c042454	0.008065302
56	0xbd684345	-0.05670478
57	0xbd72efe4	-0.05931081
58	0x3cacade1	0.021079006
59	0xbd576308	-0.052584678
60	0xbcb535e5	-0.022120425
61	0xbd15d692	-0.036581583
62	0x3c1e879b	0.009675886
63	0x3cbe481b	0.023227742
64	0xbaffd4f6	-0.0019518423
65	0x3c03f9e7	0.008055187
66	0xbd02e43d	-0.031955946
67	0x3d69457c	0.05695103
68	0xbccef292	-0.02526215
69	0xbcc14cca	-0.023596186
70	0xbd8732d4	-0.066014916
71	0xbd493316	-0.049120985
72	0x3c73d9e4	0.014883492
73	0xba3d421e	-0.000721963
74	0xbcb6d87c	-0.022320025
75	0xbc7fa7a9	-0.015603938
76	0xbd8c9a2e	-0.06865345
77	0xbc9e9851	-0.01935974
78	0xbd5cdb3a	-0.05392001
79	0x3c0bcd47	0.008532829
80	0xbd19ff96	-0.03759726
81	0xb852ce99	-5.026031e-05
82	0xbd87cb38	-0.06630558
83	0xbd3664e9	-0.04452983
84	0x3ccdf63f	0.025141833
85	0x3c078c4c	0.0082731955
86	0x3d0b014e	0.03393679
87	0x3c99b069	0.018760877
88	0x3c9888a2	0.01861984
89	0x3d50b81a	0.050956823
90	0x3c0b5d74	0.008506168
91	0xbd55d26b	-0.052202623
92	0xba55a12c	-0.00081493217
93	0xbca018c9	-0.019543068
94	0x3d09e2c2	0.03366352
95	0xbb2b2e73	-0.0026120215
96	0xbd349827	-0.044090416
97	0xbd237218	-0.03990373
98	0xbd1b6435	-0.03793736
99	0x3d74bad7	0.059748497
100	0x3d0ea479	0.034824822
101	0xbd64448d	-0.055729438
102	0xbbf55b35	-0.0074876794
103	0xbd145fe5	-0.036224265
104	0x3d386c10	0.04502493
105	0x3d138fb9	0.036025736
106	0xbc8f80c4	-0.017517455
107	0x3bd430f5	0.0064755627
108	0xbc776702	-0.015100243
109	0xbd305d87	-0.043057945
110	0xbd69c7ee	-0.057075433
111	0x3c406b09	0.011744269
112	0x3d4eb172	0.050462194
113	0xbd8f6b51	-0.07002891
114	0xbd89af31	-0.06722868
115	0xbd4568b1	-0.048195545
116	0xbd5223a4	-0.05130352
117	0xbd1d5885	-0.038414497
118	0xbd0932ee	-0.033495836
119	0x3d40e4ad	0.047093082
120	0x3d5f795f	0.054559108
121	0xbd486093	-0.048920225
122	0x3c6aad9c	0.014323618
123	0x3d0edbdc	0.034877643
124	0x3cdd489f	0.027012167
125	0x3caf4d6f	0.021399228
126	0xbd6fa3bd	-0.058505762
127	0xbce1f188	-0.027580991
128	0x3c9dc59f	0.019259272
129	0x3d3eb5eb	0.04656021
130	0xbd6d366e	-0.057913236
131	0x3d657e1a	0.056028463
132	0xbcfc2205	-0.03077794
133	0xbd65b418	-0.056079954
134	0xbd6edcd0	-0.058316052
135	0x3cf4f497	0.029901786
136	0xbd68c918	-0.056832403
137	0xbd026dd4	-0.03184302
138	0xbd4473b9	-0.047961924
139	0x3c8bf135	0.01708279
140	0x3d497d0f	0.04919153
141	0x3b0d385e	0.002154849
142	0x3b157670	0.002280619
143	0xbc83fb64	-0.016111083
144	0xbd72db63	-0.059291255
145	0x3d3bf3ce	0.045886807
146	0x3bded1dc	0.0067999195
147	0x3d622116	0.055207334
148	0x3c833654	0.016017117
149	0x3ca82ec0	0.020530105
150	0xbc37be61	-0.011214823
151	0xbd1daa52	-0.03849251
152	0x3cae67ad	0.02128967
153	0xbd42c94b	-0.04755525
154	0xbd4cd568	-0.050008208
155	0xbd533227	-0.0515615
156	0xbccb1e98	-0.024794862
157	0x3d0a41ef	0.033754285
158	0x3c9d96cd	0.019236946
159	0x3c56e59d	0.0131162675
160	0x3ca19b25	0.019727299
161	0x3c3419e4	0.010992501
162	0x3a986113	0.001162561
163	0xbd36a804	-0.044593826
164	0xbd13fd3f	-0.036130186
165	0x3d424926	0.04743304
166	0x3c2b12e8	0.010441519
167	0x3ccb6fc2	0.024833564
168	0x3d2f4102	0.042786606
169	0xbcf545ca	-0.029940505
170	0xbc966215	-0.018357316
171	0x3d23651e	0.039891355
172	0xbd22766c	-0.039663717
173	0xbc08ae23	-0.008342299
174	0xbcdba335	-0.026811222
175	0x3ced26ed	0.028949225
176	0x3bf1770c	0.007368928
177	0x3d2dd336	0.042437755
178	0xbd907f0f	-0.070554845
179	0xbc442755	-0.011972268
180	0xbc273705	-0.010205989
181	0x3ae72ee6	0.0017637878
182	0xbd339226	-0.04384055
183	0xbcfa470d	-0.030551458
184	0xbd7472ef	-0.05967992
185	0x3d2e02ae	0.042483024
186	0x3b83d0d4	0.004022697
187	0x3d1afc56	0.037838303
188	0x3bffcbc4	0.007806273
189	0xbc084b90	-0.008318797
190	0xbc21ac38	-0.00986772
191	0x3d2fc8be	0.042916052
192	0x3d1dacad	0.038494755
193	0x3b98f39b	0.004667712
194	0x3d30e43d	0.043186415
195	0xbc29527d	-0.010334608
196	0x3c43f9a3	0.0119613735
197	0x3ce0248e	0.02736118
198	0xbd727b2a	-0.05919949
199	0x3b8b4071	0.0042496254
200	0xbd014500	-0.031559944
201	0x3ce59994	0.028027333
202	0xbd415aa4	-0.047205582
203	0x3c9bd78a	0.019023675
204	0xbd180aae	-0.03711956
205	0xbc72bc35	-0.01481538
206	0xbd68f6a1	-0.05687583
207	0xbd0b564c	-0.034017846
208	0x3cee8415	0.029115716
209	0xb9b1ad18	-0.00033889036
210	0xbd858cb6	-0.06520979
211	0xbc2c895a	-0.010530794
212	0x3d0fa3b0	0.035068214
213	0x3d59de29	0.053190384
214	0xbd8af1cb	-0.067843996
215	0x3d36d5cb	0.044637483
216	0x3d29e765	0.04148044
217	0xbd3b1fac	-0.0456845
218	0x3c3ba6c9	0.011453339
219	0xbcf0ab43	-0.029378539
220	0xbd4aa4dc	-0.04947363
221	0x3d53cc72	0.051708646
222	0x3d4292f5	0.04750343
223	0x3cf15efb	0.029464236
224	0xbc3210f6	-0.010868302
225	0xbcc5c56e	-0.024141993
226	0x3c70be0c	0.014693748
227	0x3bb62de8	0.0055596717
228	0xbcc436e0	-0.023951948
229	0xbcff5ba2	-0.031171624
230	0xbcbcf704	-0.023067005
231	0x3d3bbed8	0.0458363
232	0x3d54e753	0.05197842
233	0x3d10c3fc	0.035343155
234	0xbbedac52	-0.007253208
235	0xbcfe853e	-0.031069394
236	0xbb57252a	-0.0032828548
237	0xbcd3c632	-0.025851343
238	0x3b89b28a	0.0042021917
239	0x3911f60d	0.00013919939
240	0xbc3d6221	-0.01155904
241	0x3caadd27	0.020857407
242	0x3d0c129f	0.034197446
243	0xbe01bea2	-0.12670377
244	0xbe1430e4	-0.14471775
245	0xbe0eb4b4	-0.1393612
246	0xbdba83c9	-0.09107167
247	0xbd98b97d	-0.07457254
248	0xbd7abda3	-0.061216008
249	0xbc02051e	-0.00793579
250	0xbd37cede	-0.04487502
251	0xbd298b32	-0.041392513
252	0xbe112ccc	-0.14177245
253	0xbdd5e149	-0.1044336
254	0xbd677a98	-0.0565134
255	0xbdea101f	-0.11428856

model.0.bias f4 [64]
0	0x3c6dc79b	0.014512922
1	0x3cec7459	0.028864073
2	0xbca9951d	-0.020700986
3	0xbca0212d	-0.01954707
4	0xbcbb7181	-0.022881271
5	0xbcff37da	-0.031154562
6	0x3d925ab2	0.07146205
7	0x3d68c59a	0.056829073
8	0xbb7f55ae	-0.0038960981
9	0x3d0b31c8	0.033983022
10	0xbd8e753f	-0.06955957
11	0xbd3bb717	-0.045828905
12	0x3c9a8c0e	0.018865611
13	0x3d19aea4	0.037520066
14	0x3cb39e2c	0.021926008
15	0x3d0a08c4	0.033699766
16	0xbd833032	-0.06405677
17	0x3d3e4004	0.04644777
18	0x3d151808	0.03639987
19	0xbd2c05f9	-0.041997883
20	0xbca9442a	-0.020662386
21	0xba2ac79f	-0.0006514731
22	0xbd2578b8	-0.04039833
23	0x3d0b1016	0.033950888
24	0xbbc51901	-0.0060149436
25	0xbd3f5cbc	-0.046719298
26	0x3d0cf1ec	0.034410402
27	0x3d21bcf0	0.039486825
28	0x3cb010dc	0.021492414
29	0xbba836a3	-0.0051334663
30	0xbcb8e3d1	-0.022569569
31	0xbce75b3c	-0.028241746
32	0xbce291fb	-0.0276575
33	0x3d288fb1	0.04115266
34	0x3c51270e	0.012765659
35	0xbd0c49e3	-0.03425015
36	0xbc927137	-0.01787625
37	0xbd70d1b6	-0.058793746
38	0x3c1e48be	0.009660898
39	0xbd38f8fe	-0.045159332
40	0xbdbbf97f	-0.09178447
41	0xbce82e82	-0.02834249
42	0xbd00f2f7	-0.03148171
43	0xbd915dc7	-0.07097965
44	0xbd27c42e	-0.040958576
45	0x3d5dade6	0.05412092
46	0x3d00e13d	0.031464804
47	0xba9f8792	-0.001217114
48	0x3cbdb807	0.02315904
49	0x3c3dd77e	0.011587022
50	0x3d02a0f5	0.03189178
51	0x3d2b0cf7	0.04176041
52	0xbcb6280d	-0.022235895
53	0xbceb56f9	-0.028727995
54	0xbcb39bf5	-0.021924952
55	0x3db47134	0.08810654
56	0xbd2bcdb6	-0.041944228
57	0xbae1cdbe	-0.0017227454
58	0x3d209d82	0.03921271
59	0xbd2d0fb2	-0.042251296
60	0xbc680f18	-0.014163755
61	0x3ca91f04	0.020644672
62	0xbc8fa384	-0.017534025
63	0xbd39edca	-0.04539279

model.2.weight f4 [64, 64, 3, 3]
0	0xbc283d5d	-0.010268536
1	0xbd13d7bf	-0.036094423
2	0x3d1659bf	0.036706682
3	0xbb6ca106	-0.003610672
4	0xbcd12b92	-0.025533471
5	0xbcc4f1ba	-0.024041045
6	0xbd13583c	-0.03597282
7	0x3d1c53ff	0.038166042
8	0xbca049c9	-0.019566434
9	0xbc332ab7	-0.010935477
10	0xbd120128	-0.035645634
11	0x3e12aee3	0.14324526
12	0xbd2d3e74	-0.042295888
13	0xbd1e7857	-0.038688984
14	0xbd159671	-0.036520425
15	0xbc12ccc9	-0.008959957
16	0xbd57ccd1	-0.052685563
17	0xbd980f99	-0.0742485
18	0x3d209004	0.039199844
19	0x3d142218	0.036165327
20	0xbc220a2f	-0.009890123
21	0x3d519cb8	0.05117485
22	0xbc6d73a9	-0.014492908
23	0x3c4e166d	0.012578589
24	0x3d047611	0.03233916
25	0x3d7c4575	0.061589677
26	0x3c4dff9a	0.012573147
27	0xbcbb7cf3	-0.022886729
28	0x3dbea079	0.093079515
29	0xbd0cb910	-0.034356177
30	0xbcddfefb	-0.027099123
31	0x3e272b1b	0.16325037
32	0x3e1a412a	0.1506392
33	0xbd4c12f4	-0.049822763
34	0xbdb9a4f9	-0.09064669
35	0xbd7435df	-0.059621688
36	0xbc8eb8df	-0.017422138
37	0x3cc040a1	0.023468317
38	0xbce16905	-0.027515898
39	0xbc1b814f	-0.009491279
40	0xbd343ed1	-0.04400522
41	0xbcc6eb11	-0.02428201
42	0xbd04f2d2	-0.032458134
43	0xbc9f87f1	-0.019474002
44	0xbce20fd3	-0.027595436
45	0x3b90f9d7	0.0044243145
46	0x3c2baec7	0.010478682
47	0x3c9c49f0	0.019078225
48	0x3b552ddf	0.0032528562
49	0xbd01147c	-0.031513676
50	0x3ccd5bef	0.025068251
51	0x3cc5ae81	0.024131062
52	0xbc304fdb	-0.0107612265
53	0xbc4806fb	-0.0122086955
54	0xbd94bb35	-0.072622694
55	0xbd00039a	-0.031253435
56	0xbdd02f14	-0.101652294
57	0xbce84f96	-0.028358262
58	0xbd8d2e2f	-0.068935744
59	0xbd9c0fd9	-0.0762021
60	0x3cab4ca1	0.020910563
61	0x3ce3ed5a	0.027823139
62	0x3ca6fb3b	0.020383468
63	0xbc224b26	-0.009905612
64	0x3d6e33aa	0.05815474
65	0xbbefb7ef	-0.0073156278
66	0x3bf7cd7c	0.0075623374
67	0xbdabba18	-0.08385104
68	0xbcac5f4a	-0.021041531
69	0xbd6b9159	-0.05751166
70	0x3c20f2ed	0.009823543
71	0xbb8ef84a	-0.0043630945
72	0x3cb110fd	0.021614546
73	0x3db5ecd0	0.08883059
74	0x3dbe91c9	0.0930515
75	0xbda1825c	-0.07886192
76	0x3d74b5e2	0.05974377
77	0x3d50f14e	0.051011376
78	0xbd4a2a69	-0.04935685
79	0x3d935967	0.071947865
80	0x3b615218	0.0034381207
81	0xbd1192b9	-0.035540316
82	0xbd031fd0	-0.03201276
83	0xbc4893cd	-0.01224227
84	0xbc985ba1	-0.01859838
85	0x39bb838f	0.00035765438
86	0x3bf0d0fb	0.007349131
87	0xbd7ae666	-0.06125488
88	0xbd3241ee	-0.043519907
89	0xbc07405b	-0.00825509
90	0x3bbf5002	0.005838395
91	0xbccdffe2	-0.025146428
92	0xbd256cba	-0.040386893
93	0x3bfaf188	0.0076581873
94	0xbcc77a37	-0.024350269
95	0xbce9d04e	-0.02854171
96	0x3c0f4e82	0.008746745
97	0xbd29559b	-0.041341405
98	0x3cab110d	0.020882154
99	0xbcc37fae	-0.023864593
100	0xbcdc909f	-0.02692443
101	0x3c8a875e	0.016910251
102	0xbcd13c43	-0.02554143
103	0xbd1f048e	-0.038822703
104	0x3d1d0c36	0.038341723
105	0x3cf130db	0.029442241
106	0x3cb59698	0.022166535
107	0x3c0f1b30	0.008734509
108	0xbb101533	-0.0021985292
109	0x3cf2ea7b	0.029652825
110	0xbcc99fb5	-0.024612287
111	0x3b050603	0.0020297773
112	0xbc8a2424	-0.016862936
113	0xbb9456b2	-0.0045269364
114	0x3cf8e215	0.030381242
115	0xbc9adb4a	-0.018903393
116	0xbd2c8a64	-0.042124167
117	0x39cd0436	0.00039103784
118	0x3d1830c3	0.037155878
119	0x3d863bbf	0.065543644
120	0x3d8f4c1c	0.069969386
121	0xbbd2edc9	-0.0064370376
122	0xbbcc9e6a	-0.0062444704
123	0x3d8e5a95	0.06950871
124	0x3cf8214f	0.03028932
125	0x3d38a295	0.045076925
126	0x3d405d79	0.046964142
127	0xbd714386	-0.058902286
128	0xbc9b8c16	-0.018987697
129	0x3d8837d8	0.06651276
130	0xbca30606	-0.019900333
131	0xbd9673f2	-0.073463336
132	0xbd6d749f	-0.057972547
133	0xbd8dcbed	-0.069236614
134	0xbcc54279	-0.024079548
135	0xbd424bf0	-0.0474357
136	0x3cc8188b	0.024425765
137	0x3c50bdeb	0.0127405925
138	0x3d0eaa72	0.034830518
139	0xbd19a2a4	-0.03750862
140	0xba9e6807	-0.0012085446
141	0x3ca27e57	0.019835634
142	0xbbe8f2ee	-0.0071090376
143	0x3c20fa6c	0.00982533
144	0xbb1697b5	-0.0022978608
145	0xbd909e3c	-0.07061431
146	0x3c9eec93	0.019399917
147	0xbcd6fbbe	-0.026243087
148	0xbd77d866	-0.060509108
149	0x3a073d70	0.0005158996
150	0x3d10fdb2	0.035398193
151	0xbadf7e9e	-0.0017051285
152	0x3b9013cf	0.0043968926
153	0xbc197939	-0.009367281
154	0xbceb6444	-0.028734334
155	0xbd0bad2a	-0.03410069
156	0xbba05a62	-0.004893587
157	0x3cb16a63	0.021657174
158	0x3cc1ee41	0.023673179
159	0x3c1a9277	0.009434334
160	0xb9b7f203	-0.00035084793
161	0x3c343957	0.010999999
162	0xbc4ea141	-0.012611688
163	0x3cc53374	0.024072386
164	0x3cdfa6ca	0.02730121
165	0x3c0f626c	0.008751493
166	0x3bbe2f8a	0.005804007
167	0x3caf809c	0.02142363
168	0xbbdc8ad6	-0.0067304177
169	0x3caca2dd	0.021073753
170	0xbcb3f51c	-0.021967463
171	0x3a84a8f7	0.0010121156
172	0x3c317e7e	0.010833381
173	0x3ce34ef0	0.027747601
174	0xbcd1de2a	-0.025618631
175	0x3bd5890c	0.0065165814
176	0x3dd35ed5	0.10320822
177	0xbc39d579	-0.0113424
178	0x3d65ec01	0.056133274
179	0x3db06f81	0.08615018
180	0xbcb8d438	-0.022562131
181	0xbc486ae4	-0.012232516
182	0x3cf50fca	0.029914755
183	0x3bdbcf2c	0.0067080464
184	0xbd291ecc	-0.041289136
185	0xbcbd0e2e	-0.02307805
186	0xbd37762a	-0.044790424
187	0x3c73db40	0.014883816
188	0x3cc48eed	0.023993934
189	0x3d1dcbcf	0.038524445
190	0x3ca6f443	0.020380145
191	0xbcfcbe84	-0.030852564
192	0x3d22e4e5	0.039769072
193	0x3cf02173	0.029312825
194	0x3d492f5f	0.049117442
195	0xbc883239	-0.01662551
196	0x3c316c60	0.010829061
197	0x3d391119	0.04518232
198	0xbe0d6ba4	-0.13810593
199	0xbe0d76a9	-0.13814797
200	0xbe2c36c3	-0.16817765
201	0xbc12767d	-0.008939383
202	0xbe0656a0	-0.13118982
203	0xbe67f59b	-0.22652285
204	0xbd5d71a5	-0.054063458
205	0xbe308b08	-0.17240536
206	0xbe99b2de	-0.30019277
207	0xbd8f48e6	-0.06996326
208	0xbda3da94	-0.08000675
209	0x3b3a7d0c	0.0028455881
210	0xbe613a96	-0.21995005
211	0xbe91501b	-0.28381428
212	0xbd55eec5	-0.05222966
213	0xbe340a15	-0.17581971
214	0x3c0c9344	0.008580033
215	0x3d52ff79	0.05151317
216	0x3c91f295	0.017815867
217	0xbd2ec7c0	-0.042670965
218	0x3af1398f	0.0018403995
219	0xbd202a19	-0.039102647
220	0x3bdf7785	0.0068196678
221	0xbc5dee7e	-0.0135456305
222	0xbcc4bcc1	-0.024015786
223	0xbb2b1cba	-0.0026109652
224	0x3ced9cfe	0.029005524
225	0x3bdddcfb	0.0067707277
226	0xbc131343	-0.00897676
227	0x3d0ff1a0	0.03514254
228	0xbcdf73bf	-0.027276872
229	0x3cb299ff	0.021801947
230	0xbd225f27	-0.039641526
231	0x3c4ca072	0.012489425
232	0xbc5e7987	-0.013578779
233	0xbc292e4e	-0.010325981
234	0xbdbde387	-0.09271913
235	0xbdacb221	-0.08432413
236	0x3d145854	0.03621705
237	0xbe34b399	-0.17646636
238	0xbd207976	-0.039178334
239	0xbbe01672	-0.006838613
240	0xbdc94ce4	-0.09829119
241	0x3d3107e4	0.043220416
242	0x3d1bf945	0.03807952
243	0x3d0d63c3	0.03451897
244	0xbe1f4b38	-0.15556037
245	0xbdec768e	-0.1154605
246	0xbc2ea21e	-0.010658769
247	0xbd92dfec	-0.07171616
248	0x3d7c4d78	0.061597317
249	0xbd3b4e9f	-0.045729276
250	0xbd4a14d7	-0.04933628
251	0xbc6d0c68	-0.01446829
252	0xbd8963fa	-0.06708522
253	0x3e024146	0.12720212
254	0x3d300f15	0.042983133
255	0x3c6b938b	0.014378439

model.2.bias f4 [64]
0	0xbd948b43	-0.072531246
1	0xbd54161b	-0.051778894
2	0xbd153afc	-0.036433205
3	0xbdbfa924	-0.09358433
4	0xbd8fce3c	-0.07021758
5	0xba39091c	-0.00070585473
6	0xbd04f5b3	-0.03246088
7	0xba5757bb	-0.0008214672
8	0xbd27d41d	-0.04097377
9	0xbce7478c	-0.028232358
10	0xbd1226aa	-0.035681404
11	0xbcc77994	-0.024349965
12	0xbd2de356	-0.042453133
13	0xbd73fe3b	-0.059568625
14	0x39a3a075	0.00031209333
15	0xbb143224	-0.0022612894
16	0xbd5b83d7	-0.05359253
17	0xbc0ec88f	-0.008714809
18	0xbb57377a	-0.0032839463
19	0xbd43d6ba	-0.0478122
20	0xbb00c2be	-0.0019647325
21	0xbc97b222	-0.018517558
22	0xbc8e918c	-0.017403387
23	0xbd2a8d02	-0.04163838
24	0xbaa3e4f0	-0.0012504142
25	0xbca39ed2	-0.019973192
26	0xbe0ae2c3	-0.13563065
27	0xbd29717b	-0.04136799
28	0xba04b00a	-0.0005061632
29	0xbd8580d7	-0.06518715
30	0xbd90438f	-0.07044136
31	0xbbb23a10	-0.0054390505
32	0xbc620f3c	-0.0137975775
33	0x3cd422d9	0.025895523
34	0xbd8e4f83	-0.069487594
35	0xba77dfaa	-0.0009455631
36	0xbd1f979c	-0.038962945
37	0xbada3eae	-0.001665076
38	0xbd8baf93	-0.068205975
39	0xbdc7fc38	-0.09764904
40	0xbab80cdf	-0.0014041922
41	0xbc2cc268	-0.010544397
42	0xbb22aa10	-0.0024820603
43	0xbc84ed90	-0.01622656
44	0xbb738bf4	-0.0037162276
45	0x3d1eb17d	0.038743485
46	0xbcbf89a2	-0.023381058
47	0xbd4352d5	-0.047686417
48	0x3a87e842	0.0010368901
49	0xbc181876	-0.009283176
50	0xbb341aee	-0.0027481872
51	0xbae65193	-0.0017571918
52	0xba94867d	-0.0011331585
53	0xbd8c617d	-0.06854532
54	0xbd520e6b	-0.05128328
55	0xbc002fdd	-0.0078239115
56	0xbb0c7cf8	-0.0021436792
57	0xbd94b8c4	-0.07261804
58	0xbd7a74ca	-0.061146535
59	0xbba1f33e	-0.004942327
60	0x3d5c6d51	0.05381519
61	0xbd3f5b82	-0.046718128
62	0xb9eface5	-0.0004571445
63	0xbba1f6cb	-0.00494275

model.4.weight f4 [3, 64, 9, 9]
0	0xbae269a4	-0.0017273915
1	0x3cee64dc	0.029100828
2	0x3b0bde5b	0.002134225
3	0xbd2503dc	-0.040286884
4	0x3c666008	0.014060982
5	0x3b471c96	0.0030382029
6	0x3b85d227	0.00408389
7	0xbca6179a	-0.020274926
8	0x3c4808aa	0.012209097
9	0x3c31b4c3	0.01084632
10	0xbc795876	-0.015218845
11	0x3d0855c0	0.033284903
12	0x3d8fa153	0.07013192
13	0x3d5a2c13	0.05326469
14	0xbcf2215f	-0.029556928
15	0xbb8a11a4	-0.0042135287
16	0x3c45b125	0.01206616
17	0x3b584116	0.0032997779
18	0xbb3fa225	-0.0029240933
19	0x3d4e1efb	0.050322514
20	0xbada9b89	-0.0016678433
21	0xbd3d208d	-0.04617362
22	0xbdcf0f90	-0.1011039
23	0x3dce62cf	0.1007744
24	0xbab45480	-0.0013758093
25	0x3c54acbc	0.012980636
26	0x3cff96ab	0.031199774
27	0xbca0aa40	-0.019612432
28	0xbce850eb	-0.028358897
29	0x3cb669a7	0.022267176
30	0x3bc243c8	0.0059284903
31	0x3d8a4c49	0.067528315
32	0x3da4627d	0.08026598
33	0xbd31ace9	-0.04337779
34	0x3cea8f5c	0.028632812
35	0x3d0d63dc	0.03451906
36	0x3c9f1c07	0.019422544
37	0xbb833205	-0.0040037655
38	0x3d9f03cf	0.07764398
39	0x3dad9572	0.0847577
40	0x3dd31245	0.10306219
41	0x3d4df125	0.0502788
42	0x3d953749	0.072859354
43	0x3c9751d4	0.018471636
44	0xbccb09d8	-0.024784967
45	0xbccffa0e	-0.02538779
46	0xbcfd6f02	-0.030936722
47	0x3d6739ef	0.056451734
48	0x3da0064c	0.07813701
49	0x3de3d957	0.11125439
50	0x3d337421	0.04381192
51	0xbc735542	-0.01485187
52	0xbc9c2b42	-0.019063596
53	0x3d6d81b4	0.057985023
54	0x3d006a57	0.031351414
55	0xbd162590	-0.036656916
56	0x3c8b2b0c	0.0169883
57	0x3c756ccb	0.014979552
58	0x3c370d8d	0.011172664
59	0xbca9a597	-0.020708842
60	0x3bed4cbe	0.0072418144
61	0x3c9b4804	0.018955238
62	0xbd32ab1a	-0.043620206
63	0x3a541cb4	0.00080914353
64	0x3d39dc2f	0.045376
65	0x3c14e530	0.009087846
66	0x3cccdfe9	0.025009112
67	0xbd41f974	-0.047357038
68	0xbd25ae8b	-0.04044966
69	0xbcfe76f4	-0.03106258
70	0xbc7c2661	-0.01539001
71	0x3ceabc29	0.028654175
72	0xbca7d78e	-0.020488527
73	0xbce543b1	-0.02798638
74	0xbd361844	-0.044456735
75	0xbd3d2018	-0.046173185
76	0xbd64e262	-0.055879958
77	0xbc8afc41	-0.016965987
78	0x3d280964	0.04102458
79	0x3a20449d	0.000611374
80	0x3ca82fa6	0.020530533
81	0x3c92191c	0.017834239
82	0xbd68cd18	-0.056836218
83	0xbd0fe3c7	-0.035129335
84	0xbd68da63	-0.056848895
85	0xbc849485	-0.0161841
86	0x3caad0cb	0.020851513
87	0x3d291b76	0.041285954
88	0x3cb9f323	0.022698944
89	0xbb91141f	-0.0044274474
90	0xbb2cb257	-0.0026351416
91	0xbc301aff	-0.010748624
92	0xbb816181	-0.003948391
93	0x3ce4ab5e	0.027913745
94	0x3c26f5a0	0.0101903975
95	0x3be7350f	0.0070558856
96	0x3ba95b1c	0.005168332
97	0x3ca513dc	0.020151071
98	0xbcb42f2f	-0.021995155
99	0xbc5db95b	-0.013532962
100	0xbc243ff4	-0.010025013
101	0x3d613a92	0.054987498
102	0x3e09a4d1	0.13441779
103	0xbc8ebf43	-0.017425185
104	0xbbbf89b7	-0.0058452743
105	0xbc9056ee	-0.017619576
106	0x3b12988e	0.0022368762
107	0xbd5edaac	-0.05440776
108	0xbd82fab2	-0.063954726
109	0xbbdf53ef	-0.0068154256
110	0x3e2452f9	0.16047277
111	0x3e42791b	0.1899151
112	0x3dea738b	0.11447819
113	0x3d1a549f	0.037678357
114	0x3b8fe948	0.004391823
115	0xbd3c2354	-0.04593213
116	0xbd7fd505	-0.06245901
117	0xbd858083	-0.06518652
118	0x3d61d0eb	0.05513088
119	0x3ea8efef	0.32995555
120	0x3eb3c699	0.35112455
121	0x3e0a74a1	0.13521053
122	0x3cb14997	0.021641536
123	0xbc7b55a1	-0.01534024
124	0xbd85f73a	-0.06541295
125	0xbcf376fa	-0.029719818
126	0xbd18ae5f	-0.03727567
127	0xbddd17b5	-0.107955374
128	0xbc88dc40	-0.016706586
129	0xbd4dd597	-0.050252523
130	0xbd1f16da	-0.038840152
131	0xbd4a82e2	-0.049441226
132	0xbda48f55	-0.08035151
133	0xbdea36cd	-0.11436234
134	0xbb1073a7	-0.002204159
135	0xbc4d6a1c	-0.0125375055
136	0xbd74495d	-0.059640277
137	0x3c1ccd99	0.009570503
138	0x3b8ed59e	0.0043589612
139	0xbd07f44b	-0.03319196
140	0xb99f179b	-0.0003034443
141	0xbc9de9b4	-0.019276477
142	0xbd831654	-0.06400743
143	0xbc803a8b	-0.015652915
144	0x3af8f41c	0.0018993649
145	0xbb4f0e07	-0.0031594054
146	0xbc827dc0	-0.015929103
147	0xbd24c3e6	-0.040225886
148	0xbd35f5e2	-0.044423945
149	0xbd2ded9f	-0.04246294
150	0xbd3cfbc4	-0.04613854
151	0xbd5bfaa8	-0.05370584
152	0xbcce6063	-0.025192445
153	0xbc7e0dab	-0.015506188
154	0xbcc8edfb	-0.02452754
155	0xbd60d937	-0.054894652
156	0xbca4e5ac	-0.020129047
157	0xbcda4161	-0.026642503
158	0xbd4a6cb6	-0.04942008
159	0xbce5e699	-0.02806406
160	0xbbfd2ece	-0.007726527
161	0xbd154af5	-0.036448438
162	0xbbf4dda3	-0.00747271
163	0x3c195b5a	0.009360159
164	0x3d126aea	0.035746492
165	0x3c68d74f	0.01421149
166	0xbc132333	-0.00898056
167	0x3bc98602	0.006150008
168	0xbd3d0e73	-0.046156358
169	0xbbfe5f19	-0.0077628014
170	0x3bc17ebc	0.0059050005
171	0xbce25f5c	-0.027633362
172	0x3c69fba7	0.01428119
173	0xbc1fc1b2	-0.00975077
174	0xbcc260b8	-0.02372776
175	0xbd11976f	-0.03554481
176	0x3d8fd6bc	0.07023379
177	0x3c16886f	0.009187802
178	0xbd144395	-0.036197264
179	0x3b3d94ff	0.002892792
180	0x3ca32d90	0.019919187
181	0xbb0409c3	-0.002014742
182	0xbc457a01	-0.012053014
183	0xbd4ac52c	-0.049504444
184	0xbdee8a91	-0.11647523
185	0xbcd36a36	-0.025807481
186	0x3d98ab7d	0.07454584
187	0xbd30949b	-0.04311047
188	0xbc05750b	-0.008145581
189	0x3cab5d64	0.020918556
190	0x3cab27ca	0.020892996
191	0xbbef9b98	-0.0073122494
192	0xbd04aabc	-0.032389387
193	0xbcdc7cb1	-0.026914926
194	0xba3245b4	-0.00068005477
195	0xbd9c635e	-0.0763614
196	0xbc754816	-0.0149708
197	0xbbfaea9f	-0.0076573635
198	0xbc59aa3c	-0.013285216
199	0xbc5c77c3	-0.013456288
200	0xbd0231ec	-0.03178589
201	0xbbf40a69	-0.00744753
202	0x3d16e869	0.036842737
203	0x3d255857	0.04036745
204	0xbc57b103	-0.0131647615
205	0x3d4aef59	0.049544666
206	0xbd8b7876	-0.068100855
207	0xbbfddd97	-0.007747363
208	0x3c954a08	0.018223777
209	0xbcb4fea0	-0.02209407
210	0xbc90a625	-0.017657349
211	0x3bcd864e	0.006272114
212	0x3cc0af98	0.02352123
213	0x3cb61ac8	0.022229567
214	0x3bb7e1f9	0.005611655
215	0xbd627166	-0.055283926
216	0x3ba242c6	0.0049518077
217	0xbc501bda	-0.012701953
218	0xbcb0f02d	-0.0215989
219	0x3bbe7c61	0.005813167
220	0x3a76cc4f	0.00094145996
221	0xbd457302	-0.048205383
222	0xbc8d62b8	-0.017258987
223	0xbd360e12	-0.044447012
224	0xbd70b6ee	-0.058768205
225	0xbce26878	-0.027637705
226	0xbcf2fc66	-0.029661369
227	0xbbcf39ff	-0.0063240523
228	0x3bfc6fb1	0.0077037443
229	0xbc95556c	-0.018229209
230	0xbc43ec64	-0.011958215
231	0xbca0cc15	-0.019628564
232	0xbd19a485	-0.037510414
233	0xbd1f68ee	-0.038918428
234	0xbc5ee4ca	-0.013604352
235	0x3ce1ae3b	0.0275489
236	0x3ce65b20	0.028119624
237	0xbcd7bb49	-0.026334422
238	0xbd02b1f0	-0.031907976
239	0xbd349808	-0.0440903
240	0xbc183789	-0.009290584
241	0xbc21a91c	-0.009866979
242	0xbce5e486	-0.02806307
243	0x3bcc04af	0.0062261443
244	0xbc6fcc4f	-0.014636113
245	0x3b9f63e3	0.0048642023
246	0xbc272949	-0.010202714
247	0xbcc44d11	-0.02396253
248	0x3c0b2655	0.008493026
249	0x3c5a7100	0.013332605
250	0xbb19931f	-0.0023433638
251	0xbb03c014	-0.00201035
252	0x3c1e2a85	0.009653692
253	0xbc697800	-0.014249802
254	0xbb043ee5	-0.002017909
255	0xbc8e0807	-0.017337812

model.4.bias f4 [3]
0	0x3d1e0fe6	0.03858938
1	0xbce2b903	-0.027676111
2	0x3da385fa	0.079845384
