models/generator6.pth (torch, 275110 bytes, 6 tensors)

model.0.weight f4 [64, 3, 9, 9]
00000000: 9a29 2a3d 182a a83c 85b1 c53c 9c52 3cbd
00000010: f063 d23c 8971 87bd 8228 bfbc 8730 4ebd
00000020: 1f52 8d3c 1e8d 583d c5f2 94bc 07d9 113d
00000030: ef85 91bc 6b84 6ebc 920f 263c d3a7 da3c
00000040: 8647 adbc cb2f a2bd 4bd7 80bc 7fb8 94bd
00000050: cbca 9a3a 32ac bebd 8fd5 01bd ffe0 663d
00000060: d1a3 d4bc 8c40 83bd df9c 183d d80f b2bb
00000070: 000c fbbc f5ee 803b 6f01 afbc 5c37 d4bc
00000080: ef76 35bd 2386 553d 8f1d 0cbd 23a2 d13c
00000090: 7dd4 053c 584c 0fbc c91b 90bd ed22 07bc
000000a0: e0d8 19bc c8d9 383c 8a7c 533d 49fa 463d
000000b0: 4eda f53c 35c0 79bd dcf6 65bd 425b a4bc
000000c0: 9656 48bd dffc 0e3c 0440 c93c 8a76 673d
000000d0: f712 eb3a 676c 76bb 88b4 31bd 1465 b03c
000000e0: c8a9 143d e914 59bc 4962 70bd 4d30 a7bb
000000f0: a397 383d 4103 53bb 1de1 883d 8738 593b
00000100: a9e4 47bd 2781 9d3c b25e b5bd 6bba fb3b
00000110: adc2 813c fc6f d83c e50f 2fbd 7eaa 1bbc
00000120: c9e3 50bd 95c9 0fbd f1be 84bd dfec ecbd
00000130: b301 3a3d 7c80 0fbb 9516 4fbd 371d eb3c
00000140: 231b 063d 2b63 efbd 8913 c9bd 4787 40be
00000150: 78d8 80bc 75a4 f6bc afe2 c33c e286 8f3c
00000160: 6faa bfbc 3c33 c5bc ecfe 97bd 9b9f 68bd
00000170: dd30 a4bd 848b 103d 6a3a 4e3c 61b0 503c
00000180: b2cd dd3c e949 da3b e08a 79bc b18d 16be
00000190: f111 23bd 18af aabd da47 1cbd 51ef 993c
000001a0: ae32 8b3d 2c74 853d 6118 6c3c a7b5 323d
000001b0: 36c9 10be c97a 23be 274d 16be 181b ff3c
000001c0: a274 263c c3a8 bebc 1e4d cb3c c1dd 703d
000001d0: 7f5a 49bd f9cb 33be 6f4f f0bd 0030 c4bd
000001e0: 8272 023c d899 a83d c27e ae3d 1826 923d
000001f0: d39b 08bd 7634 2bbc d6d3 20be 4776 f3bd
00000200: adae 43be f1bc 8abd 3303 ba3d f6f3 943d
00000210: 878a 47bc bb0d 4e3d 6f53 fe3b 8c85 ecbd
00000220: 55bf 7ebd d6f6 39be adfc 7abc 709a 643c
00000230: ac6e cbba ce43 873d 0005 de3c f918 503d
00000240: bbe0 81bd 89dc cebd e184 31be 91b5 e43c
00000250: ef98 0dbd 804c 883d 19db dbbc 2bf1 0e3b
00000260: 1000 c33c 37f2 14be 137f c9bd 0ffd 16be
00000270: e46c 3abd b970 2b3d 642b db3c b961 14bd
00000280: 841a adbc 5cd5 3abc f6b8 86bd 0bd8 4bbc
00000290: 9c8d c43c f11d c83c 1adf 903d 4a9b a5b9
000002a0: 7223 dc3c 300f 0dbd 4fe8 8b3d cb0f 09bd
000002b0: 500b 1bba e5c4 9dbd 9a24 0abd d4a5 08bc
000002c0: 7c2f 263c b2fb 5dbb f5b9 863d b8ae e43c
000002d0: cfc1 84bc 7f72 44bd 2fa3 503c 31da d0bc
000002e0: 806c 39bd 2a8a 563c ee85 483d 82bb a4bc
000002f0: 6dcf e23c dde6 a6bd a418 ddbc c407 93bc
00000300: e901 c33b 9521 193c d64d 77bc a1af d83c
00000310: 365c 0bbc e379 c6bc 5f91 64bd d646 c8bc
00000320: 5650 8cbd 56fe 0cbd dbd7 4e3d d2e2 da3c
00000330: dbf4 fcba 0c56 ee3c 686e e4bb 0de6 a83c
00000340: c4a5 bdbd e877 92bc bf62 ebbd 10ab 8e3d
00000350: eaf7 9a3d d58c 363c 23dc 933d 3915 e2bb
00000360: 2e2f 42bd 38a8 113c 75cd 823c a315 26bc
00000370: 3923 3cbd 46ae 1a3c 5d6e 37bc efd2 17bd
00000380: 42d8 2bbc 0f4f 0dbd 229d 12bd cc9b cabd
00000390: 1ff4 c2bd f731 443d 0595 cf3b 09e6 ef3c
000003a0: c06c 3abd 53f6 7ebd 21c4 80bc 4595 51bb
000003b0: 5201 25bc 4510 bebd 2528 b6bc 2dd1 063d
000003c0: 146e 04bd 3139 013d 9928 4cbd a241 fabd
000003d0: 935b c8bd 211c aabd 332f 85bd be7a a2bc
000003e0: 22e0 48bd 0c61 b4bd a046 f0bd 9932 03bd
000003f0: b9e1 d4bd b38b 6cbd 5624 9dbd 67bd 05bd
0.04154358 0.020527884 0.0241325 -0.04597722 0.02568242 -0.06613452 -0.023334745 -0.050339248
0.017251072 0.052868955 -0.018182168 0.035607364 -0.01776406 -0.014557938 0.010135548 0.026691353
-0.02115227 -0.07919272 -0.01572766 -0.07261752 0.0011809705 -0.093101874 -0.031697806 0.056366917
-0.02595702 -0.06408796 0.03725898 -0.0054340176 -0.03064537 0.003934736 -0.021362988 -0.025905304
-0.044302877 0.052129876 -0.034207877 0.025590008 0.008168337 -0.008746229 -0.070365496 -0.008248073
-0.009390086 0.011282392 0.05163244 0.048578534 0.030011322 -0.06097432 -0.056143627 -0.020063046
-0.0489107 0.008727281 0.024566658 0.056509532 0.0017934729 -0.0037601234 -0.04338506 0.021532573
0.03629473 -0.013249614 -0.058687482 -0.0051021934 0.045066487 -0.0032197984 0.06683562 0.0033145265
-0.04880205 0.019226624 -0.08855952 0.007682135 0.015839899 0.026420586 -0.042739768 -0.009501098
-0.050998483 -0.035104353 -0.06481732 -0.11568617 0.045411777 -0.002189665 -0.050558645 0.028700454
0.032740723 -0.11688837 -0.09818179 -0.18801604 -0.01572822 -0.030107716 0.023911802 0.017520372
-0.023396699 -0.024072282 -0.07421669 -0.056792837 -0.080171324 0.035289302 0.012587169 0.0127373645
0.027075622 0.006661643 -0.015230864 -0.14702488 -0.039812032 -0.08334178 -0.03815446 0.018790873
0.06796776 0.06516299 0.014410109 0.04363027 -0.14139256 -0.15964808 -0.14677869 0.031140849
0.010159643 -0.023273831 0.024817046 0.05880523 -0.04915857 -0.17558278 -0.11733901 -0.09579468
0.007961871 0.08232468 0.08520271 0.07136172 -0.03335173 -0.010449519 -0.15705809 -0.11887794
-0.19109602 -0.06774319 0.090826415 0.07273094 -0.012179024 0.050306063 0.007761411 -0.115489095
-0.062194187 -0.18160567 -0.015319032 0.013952836 -0.0015520654 0.066047296 0.027101994 0.050805066
-0.06341692 -0.101006575 -0.17335846 0.027918609 -0.034569677 0.06655216 -0.026837872 0.0021811228
0.02380374 -0.14545523 -0.098386906 -0.14744972 -0.045514002 0.041855548 0.026754089 -0.036226008
-0.021130808 -0.011403408 -0.06578247 -0.012441645 0.023993306 0.02442834 0.07073803 -0.00031586952
0.02687237 -0.034438312 0.06831419 -0.033462327 -0.00059144665 -0.0770357 -0.033726312 -0.008340318
0.010143157 -0.0033871946 0.06578437 0.027915344 -0.016205696 -0.047960754 0.0127342185 -0.025494667
-0.04526949 0.013094464 0.04895585 -0.020108942 0.027686799 -0.081495024 -0.026989289 -0.017948039
0.0059511554 0.0093463855 -0.015094241 0.026450934 -0.0085058715 -0.024228042 -0.0558027 -0.02444784
-0.0685126 -0.03442224 0.050498825 0.026719484 -0.0019299047 0.029093765 -0.0069711693 0.02061751
-0.09260133 -0.017879441 -0.11493444 0.06966221 0.07566817 0.011141975 0.07219722 -0.0068995026
-0.047408275 0.008890204 0.01596711 -0.0101369945 -0.04593203 0.009440964 -0.011195746 -0.037066396
-0.010488572 -0.034499224 -0.035794385 -0.09892997 -0.09519219 0.047899213 0.006334903 0.029284494
-0.04551387 -0.06224663 -0.015718522 -0.003197984 -0.010071116 -0.09280447 -0.02223594 0.03291433
-0.03233154 0.031548683 -0.049843404 -0.1221955 -0.097830914 -0.083061464 -0.06503143 -0.019833919
-0.049041875 -0.08807573 -0.11732221 -0.032030676 -0.10394616 -0.057750415 -0.07672946 -0.03265133

model.0.bias f4 [64]
00000000: 580a 713d 31c8 1ebd 981a 4a3d 08c0 b63c
00000010: c027 a63c 2440 13bd 4a91 823d b826 b1bc
00000020: b8d4 353d f173 11bd 749e 293d 388c fdbc
00000030: da2e e2bc eba9 86bd 7441 82bd b9f7 1b3d
00000040: de11 d13c 02f7 81bb 7607 5dbd 3615 74bd
00000050: 17e5 483d 64fb b9bd 2c2b 1c3d 02e0 a5bc
00000060: 933d 0d3d d511 77bd 8310 6abd 0ab2 e6bb
00000070: 0b44 d0bc ee72 b7bb 2259 213d 2786 ca3c
00000080: 0200 3b3c 7de6 eabc da15 1ebd 62d8 54bc
00000090: 6cdd 1e3d 6b06 96bd 39ff 17bd 5fcc 473d
000000a0: 8fd2 0a3d f881 23bd 9bfe 093d 8d92 1bbd
000000b0: 854e a7bd 6f8f 793d 33ab 03bd f89b 6e3d
000000c0: e003 573d d011 58bc aaa3 88bc 7ff4 4a3a
000000d0: f42a 433c 7719 6cbb 6e92 f43c ad16 e83a
000000e0: bc5c e6bb 9367 55bc 586e 6dbd 4e76 543c
000000f0: a602 86bc 1470 a13b db39 8abd 6184 0c3b
0.058847755 -0.038765136 0.049341768 0.022308365 0.020282626 -0.03594984 0.06375368 -0.021624908
0.044392318 -0.03551096 0.04141088 -0.03095065 -0.027610231 -0.06575378 -0.063601404 0.038078044
0.025521215 -0.003966213 -0.053962193 -0.05959054 0.049046602 -0.09081152 0.03812711 -0.020248417
0.03448255 -0.06031974 -0.057144653 -0.007040267 -0.02542307 -0.0055984175 0.039391644 0.024722172
0.011413576 -0.028674359 -0.038595058 -0.012991043 0.038785383 -0.07325443 -0.037108634 0.048778888
0.03389221 -0.03991887 0.033690076 -0.03798156 -0.08169273 0.060927805 -0.03214569 0.058254212
0.05249393 -0.013187841 -0.016679604 0.0007742121 0.011912096 -0.003602592 0.02985498 0.0017706953
-0.007030098 -0.013025182 -0.05796656 0.012967659 -0.016358685 0.004926691 -0.06749316 0.0021441209

model.2.weight f4 [64, 64, 3, 3]
00000000: 2e3d 7abd 7e58 05bc a951 c73a 27b9 7dbd
00000010: 60d4 24bd a563 baba d2e9 19bd 07c4 40bd
00000020: 7ca0 e7bc 9109 ddbb 3fba 9ebc 1598 cfbc
00000030: b4d7 49bd a937 38bd b249 b9bd cfcd da3c
00000040: 8c85 e83c ea0a ed3b 954a 83bc b690 cebd
00000050: ddc6 64bc 5cb0 b4bd 184d 80bd e142 1ebd
00000060: 947d 6dbd 91a8 babc c9f2 08bd abe2 673d
00000070: fdc8 263d 6204 393d 1260 5e3c f695 57bc
00000080: bc52 1d3d 83fa 09bd be6b 653b 4de8 da3b
00000090: 4830 e73c db6e 87be ca9d d4be 6073 403d
000000a0: a808 63bd 632d 65be 07fb 1ebc e31b eebd
000000b0: 458b 84be 000c 8d3d f006 663a 738e f6bb
000000c0: bb50 383c dffa 6dbd 7af6 303c b072 c7bd
000000d0: f023 ecbd fb7f 9cbb eea7 8dbd 13ce cbbd
000000e0: 8cb6 9abd 9237 ddbd ae6f 64bd 85e0 97bd
000000f0: 69d0 673d c76a 29bd f3e0 dbbc 750e babc
00000100: 42a0 d03b 39df 1bbc ddd9 613c f55f 0f3d
00000110: 4f22 31bd a661 c63c a5bb 2b3c a757 90bc
00000120: 9ae5 cf3c dac5 a8b9 ed38 d53a f0ca 833b
00000130: 8e44 2bbc 728d da3c b99b 3e3d ff17 103c
00000140: a05e 043c 3bf4 083c 2cfa 0ebd 8648 4bbc
00000150: e3ec 05bd 834d f63c e656 e0bc d632 b73c
00000160: 971a 0a3d eb47 0fbc 2735 103d d1be 14bb
00000170: 077c 9b3c 8e7c 19bd 0b92 9a3b 5780 5bbc
00000180: 8021 cd3b 1844 863b c472 20bd 6463 d0bd
00000190: dcc2 983b 4c72 0d3d 9a31 5bbc 50c7 5b3c
000001a0: 97ee 4a3d 8e03 4e3d 4eb4 923d 6f9e c83c
000001b0: 2b54 d8ba 56e5 cebb 7358 903c 7ba5 9d3c
000001c0: 1b9b 17bc d043 523c 00ac 67bc a349 a53c
000001d0: 4a06 173d bb3f 153d fc98 25bd d8a9 20bd
000001e0: 2443 76bc ec94 8abc 7a0d 213d 3b26 1b3d
000001f0: 03f2 d9bc ae1c 79bc 7017 84bd e9e5 7ebd
00000200: 97ec 0bbe 0942 95bc 21f3 d4bc 6ba8 1abd
00000210: 76a1 28be a7ff 31be c8d7 8ebe 9206 dcbc
00000220: ed21 613d a752 a8bb fcdd 6bbd 352d d33c
00000230: 4fa6 6fbd 702b a2bc 7e9c fa3c 5f8f 413d
00000240: c7fa 19be 9be8 86bd 2f04 38bd cae6 f73c
00000250: e4b4 cabc dd02 a6bd 0de5 46bc 8637 36bd
00000260: de1d 08be 95cc 57bc bb33 493d 8793 033d
00000270: c524 2bbd 0b20 31bd 4b82 7fbd 1a56 18bd
00000280: f487 8ebd 3fcd 783c 4304 9fbc f651 d63c
00000290: 6aa5 ae3c 5124 8e3c 8ffa 3fbc 3812 debc
000002a0: bb45 9e3c 8003 eabc 88db 1fbd 61e3 d4bc
000002b0: 9b4a 32bd 2963 c8bb a1c2 ff3c 3927 17bd
000002c0: 7c4a 8abc 672a 28bd cf97 2cbd 996b 34bd
000002d0: 850d 9abd 8e70 b6bd 0058 433d 9acc 0ebd
000002e0: f614 96bd cc78 8bbc 774f afbc 31d5 23be
000002f0: d13f 97bd 8980 bfbd c6c0 fa39 88b8 b43c
00000300: 0d84 1dbd a75c 033d 3ee4 dabb 125e cabc
00000310: 9df4 023c e0d9 ddbc aa60 3f3d bbb6 1bbd
00000320: b766 edbd 42a8 a93d c7bf 553d 3a00 bebd
00000330: f03e 643d 8c07 d53c e248 15bd e044 75bd
00000340: a145 27bc e5af 48bc 860e c1bd d9a8 49bd
00000350: 694c b0bc 374a edbd 901a 99bd 744d e63c
00000360: 2dbc 84bd fc12 b3bd e9d1 033c 48f2 2f3b
00000370: ef69 89bd 9964 213d ab3c 853d a025 bbbc
00000380: 6681 513d 3392 b13c 882c a93c 406e 863c
00000390: fa04 96bb 96cf 883c 85ba 123d 0545 29bd
000003a0: be7c 3f3d 58bc 193b 7427 30bd 534d a43c
000003b0: 67c7 d43b 8528 9f3c a55f a63c 7ba6 f3bb
000003c0: ade0 a23c 254a 1abd 1ecb 68bb 33a4 313c
000003d0: f723 3b3d 9e52 aabc d941 163d 0a79 08bb
000003e0: ae25 38bb 622e c3bc 8234 433c 141f bfbc
000003f0: e10f 09bd 478d be3c 4b7c 673c bfea 51bd
-0.0610935 -0.008138774 0.0015206832 -0.061944153 -0.0402416 -0.001422037 -0.037576504 -0.047061946
-0.028274767 -0.006745525 -0.019375918 -0.025341073 -0.049277976 -0.044974957 -0.090472594 0.026709465
0.028383993 0.007233967 -0.016026774 -0.10086195 -0.013963428 -0.088227004 -0.062647045 -0.038638
-0.05798109 -0.022785457 -0.033434663 0.05661265 0.04071902 0.045170195 0.01357271 -0.013158312
0.03840898 -0.033686172 0.0035006846 0.0066805244 0.028221264 -0.26451764 -0.41526634 0.04698503
-0.055428177 -0.22380595 -0.009703404 -0.11626413 -0.25887504 0.068870544 0.00087748375 -0.0075243055
0.011249716 -0.058100577 0.010800952 -0.09738672 -0.11530292 -0.0047759986 -0.06916796 -0.09951415
-0.07554349 -0.10801615 -0.05577057 -0.074158706 0.05659524 -0.041361596 -0.026840663 -0.022711972
0.0063667605 -0.00951367 0.013784853 0.03500362 -0.04324561 0.024216484 0.01048175 -0.01761992
0.025378037 -0.00032190868 0.0016267576 0.004021995 -0.010453356 0.026678775 0.046535227 0.008794784
0.008079201 0.00835901 -0.03490655 -0.012407428 -0.032696616 0.030066257 -0.027385186 0.022363108
0.033716764 -0.008745174 0.03520694 -0.0022696743 0.01898004 -0.0374723 0.0047171167 -0.013397298
0.006260097 0.004097473 -0.03917195 -0.10175207 0.004661901 0.03453283 -0.013378525 0.013414219
0.049543943 0.05029636 0.07163297 0.02448961 -0.0016504576 -0.00631396 0.0176203 0.019243946
-0.009253289 0.012833551 -0.014140129 0.020176714 0.036871232 0.03643773 -0.0404291 -0.039224476
-0.015030656 -0.016916715 0.039319493 0.037878256 -0.026604658 -0.015204592 -0.06449783 -0.06223098
-0.1366447 -0.018219965 -0.02599484 -0.037758272 -0.16467842 -0.1738268 -0.27899003 -0.026858602
0.054963995 -0.005136806 -0.057584748 0.025778392 -0.058508214 -0.019796103 0.0305922 0.04725587
-0.1503707 -0.06587335 -0.044925865 0.030261416 -0.024744458 -0.08106015 -0.012139571 -0.044486545
-0.13292643 -0.013171335 0.0491216 0.032123115 -0.041783113 -0.04324345 -0.062380116 -0.037191488
-0.06959525 0.015185653 -0.019411212 0.026162129 0.02131911 0.017351301 -0.011717453 -0.027108297
0.01932036 -0.028566122 -0.03902772 -0.025987329 -0.04352818 -0.0061153364 0.031220736 -0.03690264
-0.01688122 -0.041056063 -0.042136963 -0.044047926 -0.0752211 -0.08908187 0.047691345 -0.034863092
-0.07328217 -0.017025374 -0.021400196 -0.15999295 -0.07385219 -0.09350688 0.00047827343 0.022060648
-0.03845601 0.032070782 -0.0066800406 -0.02470306 0.007992891 -0.02708143 0.046723045 -0.038016062
-0.11591857 0.08284046 0.052184846 -0.09277387 0.055724084 0.026004575 -0.03644646 -0.059880137
-0.010209472 -0.012248968 -0.09426598 -0.04923329 -0.02152081 -0.11586421 -0.074757695 0.028113104
-0.06481204 -0.08743855 0.008045652 0.0026847292 -0.06709658 0.039402578 0.06505712 -0.02284509
0.051148795 0.021676159 0.020651117 0.016409993 -0.00457823 0.016700547 0.03582241 -0.041325588
0.046749823 0.002345821 -0.043006375 0.020056402 0.006493497 0.0194285 0.020309279 -0.0074356175
0.019882524 -0.037668366 -0.0035521458 0.010842371 0.045688596 -0.020791348 0.03668389 -0.0020824098
-0.002809863 -0.023825828 0.011914374 -0.023330249 -0.03346241 0.023260726 0.014128755 -0.051249262

model.2.bias f4 [64]
00000000: 15ec 883c 9a5c 833b be1a ac3c 391c d8bd
00000010: c1f4 dbbd fae5 7a3b bfb7 383c 5bb3 913a
00000020: 1f38 d5bb 666d 6bbd d763 17bd 536c 43bc
00000030: 90c6 d1bc 418e 67bd c36b 8d3d 6ba9 74bd
00000040: ad73 e9ba 4aae 4a3c 52b0 7abd 52f5 ccbd
00000050: 196f 133c e7ba b7bc 54db 76bc 3e77 b0bd
00000060: eba2 363c 7ca4 88bd 280b 17be 0bb6 a1bb
00000070: 9562 773b ab90 943c eacd 95bb 2059 6dbc
00000080: 7ad3 29bd f345 77ba dee8 a33c 9d9b 9dbc
00000090: ec1f a7bd 1610 603c 8a7f 56bd 0d5a adb9
000000a0: 6c61 8fbd 594e b23a f199 a3bc a361 063c
000000b0: f3db c6bd d267 a1ba 5479 83bd 146f 333b
000000c0: 1c0d d5bd e886 e537 5ee7 ecbc 24fd cc39
000000d0: ac93 eeba c319 d13a 8ecb 0fbd 0173 54bb
000000e0: 447f 0ebd 906b a13c 4d85 86bc 65fc 303d
000000f0: 5079 c1bd 3d23 39bb db06 ebbb 7a8c 16bd
0.016714135 0.0040088417 0.021008845 -0.10552258 -0.107400425 0.003828405 0.011274277 0.0011116074
-0.0065069343 -0.057477377 -0.03696045 -0.011927682 -0.025607377 -0.05653215 0.069053195 -0.059731882
-0.0017810963 0.012370655 -0.06120331 -0.10007729 0.008998656 -0.02242799 -0.01506694 -0.08616494
0.011147241 -0.06671998 -0.1475035 -0.0049350313 0.0037747968 0.01813539 -0.004571666 -0.014486581
-0.041461445 -0.00094327255 0.0200085 -0.019239241 -0.081603855 0.01367571 -0.052367724 -0.00033064224
-0.070010036 0.0013603672 -0.019970866 0.008201989 -0.09709921 -0.0012314266 -0.06419626 0.002737944
-0.10402891 2.7361748e-05 -0.028918918 0.00039098517 -0.0018201969 0.0015953112 -0.035106234 -0.003241718
-0.03478934 0.01970461 -0.016420985 0.043209452 -0.09446967 -0.0028249763 -0.007172448 -0.036755063

model.4.weight f4 [3, 64, 9, 9]
00000000: 7ac1 be3c 3956 923c 3859 b73c 49f1 3f3c
00000010: 4642 5e3b dcc6 7a3c edfa 5c3c 7571 813c
00000020: d32e 683c ced3 9e3b d558 9eb9 4fcb 67ba
00000030: bc79 963c 18bb 8abc 66c7 d83b 6bff ecbb
00000040: 5ea4 76bc 1815 343c c460 2d3c 33f0 9ebc
00000050: d69a 29bd 6633 29bd 2d28 c9bc 43ee babc
00000060: 9cbe b3bc df40 82bc c4aa 37bc 0ae1 153b
00000070: 6f46 45bc 1d61 81bd fa1b 18bd c926 84bd
00000080: d0f7 f0bc 74e0 f5bc e4a5 38bc cb2c 6abc
00000090: 81ba b8bc 07db 0a3d 9d40 b7bc faa4 09bd
000000a0: 4163 90bd 6560 b6bc e611 51bc 149a 0cbb
000000b0: 398a 84bb ea0b 94bd d4d7 afbb 408f 2dbd
000000c0: 2e64 21bd 653e 52bd 879d e8bc be0a dcbb
000000d0: d9da aa3c c91a 97bc 5c2b 48bc 6cd9 f1bc
000000e0: 7a6c eabc 46a9 2dbd 07d3 24bd 3418 ffbc
000000f0: aad9 32bb 74ee 213a d275 a03a 80e8 8ebb
00000100: 6622 0c3c fb80 b53b f38a 36bc fa31 a1ba
00000110: 0332 b3bb 2f6d c33a 0a0b 38bc 46be abbb
00000120: d2fd 99bc f66c 74ba 3883 f43b 10fb 17bb
00000130: 6c9f 7e3a 908f 793c f637 05bb 3f3d 603c
00000140: c845 e43b 36bc 23bd 4643 6c3b 6575 83bd
00000150: 8d77 143a 6e61 5cbb d6c7 563b aac1 59bd
00000160: 8855 f3bc 0fea 64bc 4a9c 73bc 190b e3ba
00000170: 4cd0 10bd d70d a1bc b79d c9b9 0b93 3fbc
00000180: 8667 633c e31a e03b 1d29 383c af71 d63c
00000190: 3c6d 303b 610d c23c fbf2 013d b918 d23c
000001a0: 5bcf e03b 5bee ec3b 15d8 d83c 5312 753b
000001b0: 090c fbbc 49d8 25bd a852 01bc a861 eb3b
000001c0: f726 d83c c89a ea3a 6e6f a5bc a186 c5bb
000001d0: 6c27 36bd debc 5dbc 48d5 c2bc 61aa 2b3c
000001e0: d1cd 0b3d 0991 103d 2874 81bc 2769 10bd
000001f0: d247 863a 137d f53c 2b07 59bc 5fdf 5a3d
00000200: ec0c 92bc ff21 babc 6c3e 8dbb 30ac b53c
00000210: d408 003d 507b c2bc ad57 e8ba d129 6f3b
00000220: 43c8 6b3d e06e dabd 70ce d1bb f2db 56bc
00000230: 160a 61bd 2fa5 8d3c dda4 4dbd 8753 0fbc
00000240: c724 753d 2e3a 503d 891a 26bd e2c4 783b
00000250: 76ea 213d fda8 cebc f8d8 153d 516e 003c
00000260: 0de4 5f3b 97ce 97bd ff52 5bbd 5893 c03c
00000270: fc64 513d e8f3 55bd 7e13 ba3c 4c79 a4bc
00000280: aa38 babc 164e eabc c0c6 61ba b37c 2fbb
00000290: c86c 1bbd 273d 05ba 5aff 82bb b925 c3bb
000002a0: 5df9 8d3c cc51 85ba bf77 793c bfbf d53b
000002b0: e4cc d13b 9a4d 3b3d e642 d53c 70ad 7d3c
000002c0: 47f4 f3bb 9b4d 22bb 9ca1 d2bc 8d63 ccbc
000002d0: 1b99 03bd 5d8e 2c3d acac 2e3d 8a96 a3bb
000002e0: dc56 56bc f9c2 27bd ba43 65bc 296d 6abc
000002f0: cb0b 1ebd 1723 9f3c ab36 0d3c 0bfe 67bc
00000300: 5f29 643b 9708 40bb 2f47 25bd c0e6 d7bc
00000310: ec87 38bd 4b64 75ba 31bb 2c3d 3431 9bbb
00000320: 6256 b4bb 8b94 e1b9 50f7 03bd 4658 49bd
00000330: 616f babc a40e 54bd bdf3 41bc d934 463d
00000340: b9ff 403c 5c4a 84bc 80e4 d7bc 785f b4bc
00000350: 5d9e 3fbd 7fa8 54bd 5b16 10bd 3445 69bc
00000360: be84 8b3d de7f 583c db9f 68bc 3902 92bc
00000370: 404d b7bb 115e 02bd 649a 04bd 3b4d 02bd
00000380: 5f8f 85bb f9db 2bbc 4dbd 1abc 68a3 24bd
00000390: a7da 8cbc 8e6a 8dbc 4489 02bd 7520 a9bc
000003a0: 1c5a 05bd 3a84 783a d6d4 f63b 9f7c 96bb
000003b0: de00 7ebc 7dbf 3dbc 1b89 4f3b c498 abbb
000003c0: 27ee 5fbc 7f9b 2a3c 5b16 113c 6214 fabc
000003d0: 2c4b 0f3d 6efa 20bd 935c b8bc f4ef f3bc
000003e0: c035 e0bc 29ec 0a3d 1fa8 bd3c 8c43 f4bb
000003f0: 41b6 d9bd e004 c03c 1afe 72bd 6792 85bd
0.023285616 0.01786338 0.02238141 0.011715242 0.0033914014 0.015306201 0.01348756 0.01580117
0.01417132 0.0048470264 -0.00030202293 -0.0008842246 0.018368594 -0.016934916 0.006615567 -0.0072325966
-0.015053837 0.010991357 0.010582153 -0.019401645 -0.04140743 -0.041308783 -0.02455529 -0.02281869
-0.021941476 -0.015900074 -0.011210147 0.002286973 -0.012040718 -0.06317351 -0.037136056 -0.0645271
-0.029415041 -0.030014254 -0.01127002 -0.014292906 -0.02254987 0.033900287 -0.022369677 -0.0336046
-0.07050181 -0.022262761 -0.012760615 -0.0021454142 -0.0040447977 -0.07228835 -0.005366305 -0.042372942
-0.03940218 -0.051329035 -0.028395427 -0.0067151478 0.020856308 -0.01844539 -0.012217369 -0.02952262
-0.028616179 -0.04239776 -0.040240314 -0.03113947 -0.0027290382 0.0006177195 0.0012242144 -0.0043612123
0.008553123 0.0055390573 -0.0111415265 -0.0012298219 -0.0054686083 0.0014909859 -0.011233101 -0.005241188
-0.018797789 -0.0009324098 0.0074619316 -0.0023190416 0.0009713087 0.015231982 -0.0020327545 0.013686477
0.0069663264 -0.039974414 0.003605084 -0.064188756 0.00056635664 -0.0033627409 0.003277292 -0.053163208
-0.02970387 -0.01397182 -0.014868805 -0.0017322033 -0.035354897 -0.01965992 -0.00038455214 -0.011692773
0.013879662 0.0068391426 0.011240271 0.026177255 0.0026920578 0.02368802 0.031725865 0.025646554
0.006860656 0.0072305626 0.026470223 0.0037394955 -0.030645387 -0.04048947 -0.007893242 0.0071832724
0.026385767 0.0017898912 -0.020194735 -0.006028012 -0.04447119 -0.013533799 -0.023783341 0.010477633
0.03413183 0.035294566 -0.015802458 -0.03525653 0.0010244793 0.029966867 -0.013246338 0.05343568
-0.017828427 -0.022721289 -0.00431042 0.022176832 0.03125842 -0.02374044 -0.0017726325 0.003649343
0.05756403 -0.10665679 -0.006402783 -0.0131139625 -0.05494126 0.01729068 -0.050206054 -0.008747942
0.059849527 0.050836734 -0.04055265 0.0037959148 0.03953024 -0.025227064 0.03658387 0.0078388015
0.0034163028 -0.07412451 -0.053545948 0.023507759 0.051121697 -0.05223456 0.022714373 -0.02007737
-0.022732098 -0.028601687 -0.0008612685 -0.0026777207 -0.03794554 -0.000508266 -0.0039977254 -0.0059554246
0.01733082 -0.0010171472 0.015226304 0.006523102 0.0064025987 0.045728303 0.026032876 0.015483245
-0.0074448916 -0.0024765495 -0.025711827 -0.024949813 -0.032128435 0.042127956 0.04264514 -0.004992311
-0.013082232 -0.040957425 -0.013993198 -0.014308252 -0.038585465 0.019425912 0.008618991 -0.01415969
0.0034814698 -0.0029301995 -0.04035109 -0.026355147 -0.0450515 -0.0009360953 0.042170707 -0.00473609
-0.0055034617 -0.00043026017 -0.032218277 -0.04915645 -0.022758188 -0.051771775 -0.011837897 0.048390243
0.011779719 -0.016148739 -0.026354074 -0.02201818 -0.046781886 -0.051918503 -0.03517757 -0.014237691
0.06812428 0.01321408 -0.014198269 -0.017823325 -0.0055939257 -0.03182799 -0.0323738 -0.031811934
-0.004075929 -0.010489457 -0.009444547 -0.0401949 -0.017194105 -0.017262723 -0.031869188 -0.02064536
-0.032556638 0.00094801525 0.0075326962 -0.0045924927 -0.015503136 -0.011581299 0.0031667415 -0.005236717
-0.01366762 0.01041305 0.008855428 -0.030527297 0.0349838 -0.03930133 -0.02250508 -0.029777505
-0.02736938 0.033916626 0.023151455 -0.0074543413 -0.10630465 0.023439825 -0.05932436 -0.06522065

model.4.bias f4 [3]
00000000: df50 c13d e620 81bd 8e82 ef3d
0.09439253 -0.06305103 0.11694823
