models/generator7.pth (torch, 275110 bytes, 6 tensors)

model.0.weight f4 [64, 3, 9, 9]
00000000: 0832 1d3c 6d4c 7abd fbdd 4b3d d860 403c
00000010: f8e8 3c3d e502 e43c 2f5d 11bc 916e 86bb
00000020: 8cc9 02bd 6082 90bd 03e8 5abd 8324 333c
00000030: d852 90bd 6c84 edbc 7755 d9bc c584 8bbd
00000040: 1673 1ebd fa5a 02bd e58e d53b d9a0 0e3d
00000050: cd4b 64bc 895e 0b3b 52c9 67bd 3ae8 8ebc
00000060: 1664 273d 6b06 25bd bcbd ba3c bd4a af3c
00000070: 78cb 003d 9b19 513d d47a 6ebd e531 a43c
00000080: fdb8 b53c 2a83 8dbd 163f 1fbd 97a0 26bc
00000090: 7020 31bc 268d 253d b18b 9cbc 0c31 a23c
000000a0: 5ad3 dabc cc59 923b 9034 14ba 3efe a93b
000000b0: 4d05 333d ec94 75bd 02fd 5bbd 3873 9d3c
000000c0: d760 c43c 62b4 8cbd 6987 79bc cb5e fa3c
000000d0: 43a7 083c 6bef 14bd 6979 09bd c2b9 d13c
000000e0: b454 f03c dbfc 0abd 7a2f 443d ba05 e5bc
000000f0: ee75 7abd c125 81bd 6c72 2e3d 1641 bdbc
00000100: 0fc1 73bc 8baf 16bc 4c62 57bd c42e d2b9
00000110: 8cdb aa3c 6135 76bc 2fcc 173d 1644 8abc
00000120: c935 76bd 9b44 53bd 1283 1c3d 12c5 5bbd
00000130: d64d 73bd 4ca1 b2bc 0864 45bd c3bd 9b3c
00000140: e432 54bc fb44 ac3c 3e2c c93c 226a 72bc
00000150: fb84 583d 81ab f53c ea57 1abc f545 9ebc
00000160: 629f 573c 2772 003b 82fe 06bd 7f41 a63c
00000170: d3a0 1ebc 8f8c 88bd d736 b9bc c979 ae3c
00000180: c709 073d f282 29bd f526 4a3d 7000 0e3d
00000190: c833 293d c1f9 533c 591f 75bb 2f8b 3dbd
000001a0: 5088 ad3c 9e61 89bd a06c 103d a609 17bd
000001b0: 8905 14bd 68e6 00bd f69b 1d3d 0692 84bc
000001c0: 0c99 76bc 16d0 723d b67c 1f3b a375 05bd
000001d0: cd06 033d 9ef2 7dbc 87f4 6dbc d4f6 80bc
000001e0: 47df a43c c72e acbc 3f1a 7fbd 6ffd d23c
000001f0: 9f00 c53b f477 0b3d 9b07 4fbd bdbc bf3b
00000200: 15ae f6bc ce21 3cbd a21f 1fbd 5cc2 a4bc
00000210: b05d ad3c 9ec3 8fbc 554a 10bd e807 9abb
00000220: 3287 57bd 42b9 22bd 5dee eabc e2ac 343d
00000230: 3d67 11bd 2603 2ebd cfd7 c83c 9183 cf3c
00000240: 0a08 16bd 5d20 a3bc 243d c7bc d9c4 85ba
00000250: 2b0b c43b 180a 5fbd f98a f23c 1ec8 8d3a
00000260: 6319 d73c ed11 413b c138 ac3b d7e3 72bd
00000270: 505f 5cbc 7e72 a83b 947c 2e3d a80e 3e3d
00000280: 619e 23bd 6ce4 1a3d cd6d 043d 1364 bd3c
00000290: 6a5c 9a3b ecc1 ce3c 67e1 f33c d2af 0f3d
000002a0: 6f98 443d 9b99 1b3d b0a6 ad3c be60 8f3c
000002b0: b08d 093d 1e02 80bd 4e11 4e3d 21de 42bd
000002c0: 2db0 06bd c378 003d 63da 543d bfd7 babb
000002d0: 79af 4b3d bcc1 75bd 3a76 3f3c 76e3 24bc
000002e0: ec3d adbc 5476 153d 6a43 d53b e5ad 8fbd
000002f0: e680 9a3c e016 c7bc 6488 96bc a553 87bd
00000300: 2707 213d a99c 50bd 3a22 793b 40b6 4fbd
00000310: 190c 8c3c 628a d73c 578b 79bd 55aa 323c
00000320: 1014 a8bc 55cb 88bd 5f20 84bd 7a40 bfbc
00000330: 0026 c1bc 7d6b 443d fc04 60bd b959 02bd
00000340: ccf4 74bc 51ca 113d 4f07 60bd f146 20bd
00000350: ffa7 88bd 7bb1 0abd 57e8 84bd fd95 333c
00000360: 9230 423c 5759 2d3b 9e70 1d3d 45a6 983c
00000370: 6a0a 8d3c 62c8 57ba 7e23 cd3c 0bc1 36bd
00000380: 181a 4c3d f339 01bd 55c8 31bd b56c 5dbd
00000390: e7c4 463d 2352 c93b a65b 3f3d 035c 23bc
000003a0: 4201 edbc e22d acbc f56a ccbc edb7 78bd
000003b0: 85d7 fabc 8233 edbc 69cb 4dbd 34ee cc3c
000003c0: 1f34 6c3d 6b86 213d 4802 2fbd d4e8 5bbc
000003d0: facc 0e3d cfe7 4b3c 2351 6d3c 62d5 1cbd
000003e0: 6692 cdbc 4258 7abd b147 193d 0d72 9d3c
000003f0: e20e 6a3d de05 88bd 9319 c1bc 23d3 d5bc
0.009594448 -0.06110804 0.049772244 0.011741839 0.046120614 0.027833411 -0.008872314 -0.004102536
-0.03193049 -0.07056117 -0.05344392 0.010933998 -0.07047051 -0.028993808 -0.02653001 -0.06812433
-0.038683973 -0.031825043 0.0065172785 0.034821365 -0.013934088 0.0021266064 -0.05658848 -0.017444719
0.040866934 -0.040289324 0.02279555 0.021397943 0.031444043 0.05104981 -0.058222607 0.020043323
0.022182936 -0.06909783 -0.038878523 -0.010170124 -0.010810956 0.040417813 -0.019109579 0.019798778
-0.026712108 0.004466271 -0.00056535844 0.0051877787 0.043706227 -0.059956476 -0.053708084 0.01921998
0.023971958 -0.06870343 -0.015230038 0.030562779 0.00834066 -0.03636114 -0.03356305 0.025601272
0.029337265 -0.033932548 0.04789684 -0.027956832 -0.061147623 -0.06306029 0.04258959 -0.023102324
-0.014877572 -0.009197126 -0.052583978 -0.00040089164 0.020856641 -0.015027375 0.03705996 -0.016878169
-0.060109887 -0.0515791 0.038210936 -0.053654738 -0.059400402 -0.021805428 -0.0481911 0.019011384
-0.012951586 0.021028986 0.02455723 -0.014795812 0.052861195 0.029989006 -0.009420374 -0.019320467
0.013160558 0.001959929 -0.03295756 0.020294903 -0.009681898 -0.066674344 -0.022609157 0.021298306
0.03296831 -0.041384645 0.04935356 0.034668386 0.041309148 0.012937964 -0.0037402718 -0.046275314
0.021183163 -0.06708072 0.035259843 -0.036874436 -0.03613809 -0.031469733 0.038478814 -0.01618291
-0.015051138 0.059280477 0.0024335808 -0.03258289 0.031988908 -0.015499739 -0.014523632 -0.015742697
0.020125998 -0.021018399 -0.06228089 0.025755612 0.006012037 0.034049943 -0.050544363 0.005851357
-0.030112306 -0.045930676 -0.038848527 -0.020112209 0.021162838 -0.017549332 -0.03522714 -0.0047006495
-0.052619167 -0.039727457 -0.028678114 0.044110186 -0.035498846 -0.04248347 0.024516968 0.02533129
-0.03662876 -0.019912893 -0.024321146 -0.001020576 0.0059827766 -0.054452986 0.029607283 0.0010817086
0.026257223 0.0029460147 0.005255789 -0.059299316 -0.013450459 0.0051406017 0.042599276 0.046400696
-0.039945964 0.037815496 0.032331277 0.023119008 0.0047107236 0.025238954 0.029770566 0.035079785
0.047996935 0.037988286 0.021197647 0.017502185 0.03358239 -0.06250404 0.05030947 -0.04757512
-0.032882858 0.031365167 0.051966082 -0.0057019885 0.04972789 -0.059999213 0.011685902 -0.010063997
-0.02114769 0.0364898 0.0065082805 -0.070155896 0.018860292 -0.0243029 -0.018375583 -0.06607751
0.03931346 -0.050930653 0.0038014785 -0.050710917 0.017095612 0.026311103 -0.0609239 0.010904868
-0.020517379 -0.066794075 -0.06451487 -0.023346175 -0.02357769 0.04795407 -0.054692253 -0.031823847
-0.014950942 0.035593335 -0.05469447 -0.039130155 -0.06672668 -0.033860665 -0.06489628 0.010961053
0.0118524 0.0026450956 0.03843748 0.018633971 0.01721688 -0.00082314585 0.025041338 -0.044617694
0.049829572 -0.031549405 -0.043403942 -0.05405875 0.048527624 0.0061438247 0.046718262 -0.009970668
-0.028931264 -0.021017972 -0.024953345 -0.06072228 -0.030620346 -0.028955225 -0.050242815 0.025015928
0.057666894 0.03943483 -0.042726785 -0.01342221 0.03486345 0.012445404 0.0144846765 -0.038289435
-0.025094222 -0.061119325 0.037421886 0.019219423 0.0571431 -0.06641744 -0.023571765 -0.026101654

model.0.bias f4 [64]
00000000: 834b 523d fd1c ea3c 37c7 c4bc 22cf 9e3c
00000010: 892f dcbc a902 193d cc57 e5bc 7b01 4b3d
00000020: bb59 2ebd 23d9 813c 8fe2 2b3d 0a5f 6bbd
00000030: 847a cb3c f3ba c0bc 11e9 813d 8102 2d3c
00000040: 8918 5a3d 29f8 17bd a933 1f3d ccee 5d3b
00000050: 2912 21bd f69e 77bd 9794 703d 6029 d539
00000060: 1d79 0c3c d9f4 0abd 811f 843c ab49 8cbd
00000070: 4f66 6fbc 5616 e73c 0ab3 42bd a5ff 86bd
00000080: e631 c23c 9e92 53bd 177d d2bc 3fd4 ab3c
00000090: 4cfb 1a3b 5735 ddbb 55b2 1fbc 093d babd
000000a0: f42f 89bd b380 4b3d c0fd 483d 7706 87bd
000000b0: 28b6 1abd a41a a8bc bc83 653d 0d3b 84bc
000000c0: a7be 4abc a8f7 a0bd 2aab 84bd 397c b93c
000000d0: fa5b a8bc 4cf0 73bd 1ccb 4e3a 78bf 3cbd
000000e0: 3cbe f8bc e1d4 9c3d 945c f5bc cde6 a23d
000000f0: 92f8 c43c 3f2c 82bc ee83 e03c 99dd ee3c
0.051341545 0.028578276 -0.024020774 0.019385878 -0.026878135 0.037356053 -0.027995966 0.04956196
-0.042566042 0.01585061 0.04196411 -0.057463683 0.024838693 -0.023526644 0.06343282 0.010559679
0.053246055 -0.0371019 0.038867626 0.0033864258 -0.03932396 -0.06045433 0.058735456 0.00040657353
0.0085737975 -0.03392491 0.016128303 -0.068499885 -0.014611795 0.028208893 -0.047534026 -0.06591729
0.023705434 -0.051653497 -0.025694413 0.02097523 0.002364832 -0.0067507434 -0.0097471075 -0.09093673
-0.066985995 0.049683284 0.04907012 -0.0659303 -0.037771374 -0.020520516 0.056033835 -0.016141439
-0.012374557 -0.07859737 -0.064779595 0.022642242 -0.02055167 -0.059555337 0.0007888542 -0.046081036
-0.030364148 0.07657791 -0.029951371 0.07954178 0.024044309 -0.015890239 0.027406659 0.0291584

model.2.weight f4 [64, 64, 3, 3]
00000000: bbec ab3b 6353 4cbb 1499 e13c dd75 063d
00000010: ea09 89bc 84fc 233d f6f2 143d bbdf 193d
00000020: 47a6 423d 5bbb de3c 4e52 e4bc 8f7d 423c
00000030: ab38 843a 6c6f 07bc 37da fb3b 1761 eb3b
00000040: e638 123d ce79 9c3b 7091 953c 9349 a7bd
00000050: 76bb 6bbc 03de 46bd 9d3c 6dbd b981 25bd
00000060: 2353 61bd 1c42 74ba 6eea 2abd 0c53 a83c
00000070: af6e 12bc 0db9 90bd e25e 53bb fdac e5bc
00000080: 24ed a63c 724d 54bc 4599 07bd 1933 58bd
00000090: 8ed1 f63c 397a 50bd b08f 1bbd a7a8 113d
000000a0: efc5 77bc 2812 43bc 3e10 893d 2565 24bd
000000b0: 7bbe 66bd a5e9 1ebc 1108 40bd b595 a2bc
000000c0: 3c67 a4bb 5c7c 1abd f68f 66bd 4118 c4bc
000000d0: 9a3d 2fbd 5cdd 153d b261 9c3c c9e9 323c
000000e0: c943 793a cc80 50bc 1f5e f03c 88b9 a4bc
000000f0: cd5b 373c 5fe9 b8ba 8edd 4fbb 3b1a c53c
00000100: efcf 743c 1b79 3b3d 7ad4 ea3d 947e b43d
00000110: 332c b0bd f9b8 1bbd 91e0 24be b42d 50bc
00000120: af99 f63c b089 9f3c 4af2 b7bc 23c7 0bbd
00000130: 3c98 033d f8ff 103d 05d9 883c 83f6 5b3c
00000140: f490 ad3c 549e 0abe dcea febc 3c7e 48bd
00000150: 14b4 1d3c 8687 053d d78c 6dbd 84f3 803d
00000160: bc42 863d 7f98 e5bc 4303 1dbd ee58 84bc
00000170: 8ee5 a43c 4419 0e3c 663a 37bc fde9 073d
00000180: 7bec a5bc 6104 8f3c b805 813c 6c24 75bd
00000190: 0934 413d c0aa 323e 1186 85bd d867 dd3d
000001a0: 8ff1 043e a266 27be aac9 bcbd c11e 26bc
000001b0: 7e6b 7abc bbf7 99bc 1911 273d 1103 11bd
000001c0: 7784 113d 46cf 0d3d 16fe ab3c aa96 31bd
000001d0: 36a3 d63c 6566 0bbb 75db 3bbc a6a3 573c
000001e0: 1bb4 7dbc 6d7a aebc 034c 79bb 8fe0 0f3d
000001f0: cb64 783c 7d82 f5bc 8179 89bd 05aa 3d3e
00000200: 6da0 c8bd 6784 3ebd 3512 843d ec9e 913c
00000210: cbc4 46bd 4569 8fba d111 123b 847c 0dbd
00000220: b91f b03c cffc 113d 25a9 08bc b20b a13b
00000230: db7f 47bc 3130 6cbc 3e6b e0bc bdb1 faba
00000240: c6e0 6bbd a4ca 603d e09f 2ebe 8228 2abe
00000250: 8625 59bd 95e8 2abd 9b13 18bd fb11 9fbd
00000260: 5f24 023d 7270 ff3c f68d f03c 4b4a 14bc
00000270: 5540 1c3b 588f 493d 32ab 403c 0ed5 c3bc
00000280: b01f 453d 16ed 8abc b857 44bd d297 53bd
00000290: 8a46 e0bc 3c9b 87bb 149b ca3c c8aa 8ebd
000002a0: 6a49 b5bb cc84 223c 9203 673c bb37 96bc
000002b0: 5601 d1bd adaf c8bc fa3a b73b 2d99 59bd
000002c0: d2d0 2dbd a468 e43d f4a8 66bd 386f 27bd
000002d0: cc18 2b3c f94b dabc b944 a1bc dc04 d33a
000002e0: 33cb 9e3c 9f05 6dbb a058 0cbd d9d2 c6bc
000002f0: ac32 dc3b f159 4b3c ae3b c83c 4a2e 78bd
00000300: 677a 053d b9ac 92bb b8fc 8fbd 4b86 283d
00000310: 3325 dbbc ccbe e53c 3c69 aabd 7847 c6bb
00000320: 5b4a 90bd b6d7 72bd e0a8 75bd 51b1 cfbc
00000330: 8b72 763d ea5b 4dbd 322d 31bd 93e9 a8bd
00000340: 237b 593d 804d 163e 87fd adbd df67 d23c
00000350: 02d1 053e edb3 f6bd 8ec4 a53b b06d b23d
00000360: e872 983d d1b9 993d 50ae ec3c 1fc1 e9bc
00000370: d1a3 32bd ba05 173d 490c 9e3c 193c a5bc
00000380: 9e93 d9bc e64a 2c3d d289 4cbd f855 08be
00000390: b411 163d 8452 09bc fb9b 9abd bae6 e4bd
000003a0: ffa8 58bd 049e d03c 765f 69bd 1798 b6bd
000003b0: 7607 14be 1a8b 32be bdd0 67bd 48de f53d
000003c0: 87a8 97bd 1082 03bc aafa 283e dc2f 663c
000003d0: 45b6 a63b 4168 d73c 194a 5abc fcb7 163d
000003e0: 5a20 6fbc d160 263d 7996 9b3c fe79 eebc
000003f0: 051d 443d bfad cd3c 0402 82bd ad75 0b3b
0.0052467263 -0.0031177632 0.027538814 0.032827247 -0.01672836 0.04003574 0.036364518 0.03756688
0.047521856 0.027188947 -0.027871277 0.011870756 0.0010087689 -0.008266311 0.0076859253 0.007183205
0.035698794 0.0047752624 0.018257827 -0.0816833 -0.014387956 -0.04855157 -0.057919133 -0.040406916
-0.055010926 -0.00093177124 -0.041727476 0.020547412 -0.008937522 -0.07066546 -0.00322526 -0.028036589
0.02037675 -0.0129579175 -0.033105154 -0.052783106 0.03012922 -0.05089781 -0.037978828 0.03556123
-0.015122875 -0.011906184 0.06692551 -0.04013552 -0.056334 -0.00969926 -0.046882693 -0.019846777
-0.0050171893 -0.037716255 -0.056289636 -0.023937346 -0.042783357 0.036588058 0.019089554 0.010919997
0.0009508697 -0.01272602 0.029341755 -0.020108 0.011191321 -0.0014107636 -0.003171775 0.02406036
0.014942153 0.045769792 0.11466308 0.08813205 -0.0860218 -0.0380182 -0.1610129 -0.012706209
0.030102579 0.019474834 -0.0224544 -0.03412546 0.032127604 0.03540036 0.016705045 0.013425472
0.021187283 -0.1353696 -0.031117849 -0.04894851 0.0096254535 0.03259995 -0.057995643 0.06296447
0.06555697 -0.028026817 -0.03833319 -0.016155686 0.020128991 0.008673016 -0.011183357 0.033182133
-0.020254364 0.017458143 0.015749797 -0.059849188 0.047168765 0.17447948 -0.06519712 0.10810822
0.12982772 -0.16347745 -0.09218152 -0.010139168 -0.015284417 -0.018794885 0.04078779 -0.035403315
0.03552672 0.0346215 0.020995181 -0.043356575 0.026200872 -0.0021270749 -0.011465897 0.013161575
-0.015484835 -0.021298612 -0.0038039691 0.035126265 0.01516075 -0.029969448 -0.06712628 0.18521889
-0.09796224 -0.046512987 0.06448785 0.017775975 -0.04852752 -0.0010941407 0.0022288451 -0.034542575
0.021499502 0.035641488 -0.008341108 0.0049147243 -0.012176479 -0.014415787 -0.027394887 -0.0019126456
-0.057587408 0.054880753 -0.17053175 -0.16617015 -0.0530143 -0.041725714 -0.037128072 -0.077671014
0.031772967 0.031181548 0.029364567 -0.009050916 0.0023842056 0.04920897 0.011759566 -0.023905303
0.048125923 -0.016958755 -0.047935218 -0.05165846 -0.027377386 -0.0041383784 0.02473215 -0.06966168
-0.0055324333 0.009919357 0.014099972 -0.018337121 -0.10205333 -0.024497831 0.0055917474 -0.053124595
-0.042435475 0.11152771 -0.05631347 -0.04087755 0.010442924 -0.026647555 -0.01968609 0.0016099471
0.019384002 -0.003616668 -0.034264207 -0.024270462 0.0067199077 0.01241158 0.02444252 -0.06059102
0.032587435 -0.0044761566 -0.07030624 0.041143697 -0.026751136 0.02804508 -0.08320853 -0.006051
-0.07045432 -0.05928775 -0.059975505 -0.025353106 0.06016783 -0.050136484 -0.043255992 -0.08247676
0.053095948 0.14678001 -0.08495622 0.025684295 0.13068011 -0.12046037 0.0050588315 0.087123275
0.07443792 0.07506145 0.028891712 -0.02853447 -0.04361326 0.036870696 0.019292967 -0.020170258
-0.026559647 0.042063616 -0.049936123 -0.13314044 0.036637977 -0.00838149 -0.07549282 -0.1117682
-0.052895542 0.025465973 -0.056975804 -0.089157276 -0.14455971 -0.17435876 -0.056595553 0.120052874
-0.07405191 -0.008026615 0.16501871 0.0140494965 0.005087646 0.02629483 -0.01332333 0.036796555
-0.014595116 0.040619675 0.01899265 -0.029110905 0.047879238 0.025107263 -0.06348041 0.0021279857

model.2.bias f4 [64]
00000000: 8e83 823b 8f33 5d3b 04b4 d5bd eb23 e1bc
00000010: de30 6dbb e454 cd3b 23e6 a5bd 4695 6dbc
00000020: 15f9 ebbd 68c1 85bd d4e3 26bd fd04 803c
00000030: aeeb f73b f318 2fbc 9cfb fbbd 5372 99bd
00000040: d8b4 efbd fc44 77bd c4b1 71ba 7424 ebbc
00000050: 963e fabc b9fb a03c e114 233d 08ca 9b3c
00000060: 95ce e83b 87d9 733a 034f 00bb a5c5 6cbd
00000070: 52dd 523d 8257 ee3b adf7 55bd a206 40bc
00000080: 5155 f0bd f46e df3c ccf5 37bc bda3 99bd
00000090: 2cc8 133c 9e20 1c3d 144a 27bc 573c 3d3a
000000a0: 1335 56bd 4c31 a9bd 495f 66bc a1c6 1a3c
000000b0: af7e debd dbf6 55bc b741 93bc c804 3e3c
000000c0: 5ad6 f3bb ef5a a6bd 6250 8cbc 71a8 9dbd
000000d0: 8084 283b b3ee 9dbd be30 5fbc df3e 1bbd
000000e0: 385f a6bd 855a 86bb f806 41bc 820c ebbb
000000f0: 3d68 1abc a5eb ed3c dc37 05bd 4ec5 f7bc
0.0039829677 0.0033752655 -0.10434726 -0.027482947 -0.0036192457 0.0062662233 -0.08100536 -0.014500922
-0.11522118 -0.0653103 -0.040744618 0.015627379 0.007565937 -0.010687101 -0.1230385 -0.07492509
-0.11704415 -0.060368523 -0.00092199096 -0.028703906 -0.030547421 0.01965128 0.039814834 0.019017234
0.0071047046 0.00093021285 -0.0019578345 -0.057805676 0.0514806 0.0072736153 -0.052238155 -0.011720331
-0.11735023 0.027274586 -0.011228036 -0.07501934 0.009019893 0.038117044 -0.010210533 0.0007218769
-0.05229671 -0.08261356 -0.014060804 0.009446771 -0.10864007 -0.013059343 -0.017975671 0.01159782
-0.007441324 -0.08122813 -0.017128173 -0.07698143 0.0025713742 -0.07711544 -0.013622461 -0.037901755
-0.0812363 -0.0041001462 -0.011781447 -0.007173122 -0.009424266 0.029043028 -0.032523975 -0.03024545

model.4.weight f4 [3, 64, 9, 9]
00000000: 7d23 06bd 682e a8ba 3c9f 45bc 9cde 57bd
00000010: fa0f b5bd 386d 493c fd6d 90bd dcbd 09bc
00000020: 7ddb a6bc 2f6b 6e3d 5c05 013d 33d5 40bc
00000030: a1f5 4bbb 999a 39bc ecaa e7bc 108d 773c
00000040: a381 353d e739 073d fc95 0f3d 668c 73bc
00000050: a0ed a23b f39a 7fbb 3c42 08bb 5c40 373c
00000060: 3445 6b3d ab0b 3abb 4308 8e3b 0e6c b5ba
00000070: 01ac 063a 3aa4 3d3c 88d3 d13c 8f73 f73a
00000080: bdcd 6b3b 1657 3d3d 2770 da3c 40fc d83c
00000090: 2b00 7bbc e40b 303c ed70 f93c c337 0f3d
000000a0: 8607 933d 635c ae3d aa4c 0c3d 86c1 843c
000000b0: d73e c93c ebd4 51bc 7c59 80bc 9837 be3b
000000c0: 548c 73bc 5471 b93a 6910 fe3b 1e89 a6bb
000000d0: 6e03 5abc a3d8 01bb 0a4f 073c 29b3 fb3c
000000e0: d2e4 143c 5a40 d83a e218 2e3c f111 adbc
000000f0: 4342 da3c d13e 033d 6830 783c f550 2a3c
00000100: d018 573c 6a04 60bb d7ea bd39 860b f5bc
00000110: 583e 82bc b2d5 813b 48f2 4ebc 9ab3 aa3c
00000120: f63a 093b 512f 8a3c 8e78 8ebc bfd6 0f3c
00000130: 9497 f43c 1dbb e2bd 0327 84bd 8ba0 12bd
00000140: 8654 ecbc 9a04 ca3c 8302 ab3c 1be4 09bd
00000150: 29e1 d7bc bf47 883b 420d e9bc 689c 763c
00000160: 3bd1 38bc 8e04 e43b 6c1d 583d 088a f0bc
00000170: 752c 2dbd 0727 22bd e4e7 d13b 53a2 66bb
00000180: 0e41 453c dc1b e93b 0a82 043c feba 243d
00000190: 1fa9 673c 5c03 85bc 7056 823c adb4 6f3c
000001a0: 9e0b 8b3b 3e64 88bc 6d39 19bc 333d 2f3d
000001b0: 7246 7cbb 6d30 043d 51e3 943c 20d1 3bbd
000001c0: 3235 30bd 5352 5abd d139 17bd f035 46bc
000001d0: 3494 72b9 eb96 babb eeb0 bbbc 0d08 983c
000001e0: 998d cf3c 97dd a33c e430 123c eacd e83c
000001f0: 55b5 073d 1e56 a5bb 48f9 393c 1ce1 edbc
00000200: d21d 043c 497c 313c b2ad aabb 4631 3c3c
00000210: 067e e63b 9858 9f3c 27f0 cdbc 688f 973c
00000220: 413a 333c 571d 39bc e9da a13b 195a ebbb
00000230: 0db0 513c 24c4 4cbc b6c6 62bc f7d2 c6bc
00000240: 1da5 1a3b 9e3b ee3b 76d1 933b 558e e6bb
00000250: 90a0 88bc f3b4 773c dba9 4bbc 8d83 093c
00000260: 6b00 fb3b 4838 f3bc 8c63 46bc 32b5 47bc
00000270: 86b7 a23b a3ea 39bc b833 eebb b2d2 a73b
00000280: 26dc babb 9cae 55bc a3f2 b7bc 483d f13b
00000290: 95bc cc3c b22c b7bd 9bda 98bd 68e3 1b3d
000002a0: dd09 05bd 459c 79bd b545 b2bc 3d25 f0bb
000002b0: 0ffa 823c 4ca9 eebd b2d2 7b3e 356f 883e
000002c0: 8299 09bd d189 0fbd e473 7bbc a014 eabc
000002d0: 8aed b43b a765 803d ab6a 6ebd 34da 653e
000002e0: 793e be3e 897a d33c 11e8 783d 4371 19bd
000002f0: a356 933c a051 9e3b 2ae3 b53b c88b 8dbc
00000300: 37f4 7fbd 99b3 793e 8adb f6bc f986 80bb
00000310: 35dc f0bc b06a 453c e80d 943b 7f27 473c
00000320: 4b2c 0f3c 9de4 18bd 9f4e 583d 3e79 13bd
00000330: 3ada dab9 cdc8 e5bc acd9 0fbd aef0 6c3b
00000340: 1580 313b d76f 933a 667a 843c d666 3abc
00000350: b455 b1bc 0321 3b3d 3562 b03c 3398 ba3a
00000360: 2bae bd3c bf92 75bb 594a fa3c f305 0d3d
00000370: 2454 0e3d 5fd0 ac3c 4b62 41bc b327 e7bc
00000380: d58f e33a 715b b43c 0f78 833c 6476 c6ba
00000390: f789 c1bc 9083 ffbc a32f d1bc 4ef3 3cbc
000003a0: 9ae3 273c b56b 68bc cd0e f63a d099 52bc
000003b0: 1b6b 99bc 8e2a bf3c a9ee fa3b 7c6b 293c
000003c0: cba1 3fbb 5ae2 68bc 9db3 5b3b fb03 8e3c
000003d0: ed20 45bd 2b95 41bd dbb8 27bd a357 123c
000003e0: 0194 bfbc 42f7 ea3b d5ff 1b3c e1f7 0fbc
000003f0: 2449 b03c 9140 c03b c855 c73c 6b92 4f3c
-0.032748688 -0.0012831213 -0.01206189 -0.05270253 -0.08840938 0.012294106 -0.070522286 -0.008407082
-0.020368332 0.058207687 0.03149925 -0.011769581 -0.0031121748 -0.011328363 -0.028279744 0.0151093155
0.044313084 0.033014204 0.035055146 -0.014865017 0.0049721748 -0.003900227 -0.0020791432 0.011184778
0.057439044 -0.0028388302 0.004334481 -0.0013841407 0.0005137325 0.011574799 0.025613561 0.0018879044
0.0035980784 0.04622563 0.026664807 0.02648747 -0.015319864 0.010745022 0.030449355 0.034965288
0.07179169 0.08513715 0.0342528 0.01620556 0.024566097 -0.012807111 -0.01566767 0.005804967
-0.014865 0.0014148154 0.007753421 -0.0050822636 -0.013306482 -0.0019812963 0.0082585905 0.030725079
0.009087758 0.001649867 0.01062605 -0.02112672 0.026642924 0.03204233 0.01514826 0.010395278
0.013128474 -0.0034182318 0.00036223858 -0.029912721 -0.015898868 0.003962242 -0.012631007 0.020837594
0.0020939684 0.016868265 -0.01739147 0.008779227 0.029857434 -0.11070845 -0.064527534 -0.035797637
-0.028848898 0.024660397 0.020875221 -0.033664804 -0.026352482 0.0041589434 -0.028448705 0.015051939
-0.011280353 0.006958551 0.052762434 -0.029362693 -0.042278726 -0.039588 0.0064058173 -0.0035191968
0.012039436 0.007113917 0.008087644 0.040217392 0.014139443 -0.016236953 0.015910357 0.014630479
0.0042433282 -0.016649362 -0.00935207 0.042782973 -0.0038494137 0.032272745 0.0181748 -0.045853734
-0.04301948 -0.053301167 -0.036920372 -0.012097821 -0.00023134128 -0.0056942604 -0.022911515 0.018558526
0.025336074 0.020003123 0.008922789 0.0284185 0.033131916 -0.0050456664 0.011350937 -0.029038005
0.00806375 0.010832855 -0.0052086944 0.011486357 0.007034066 0.019451424 -0.025138928 0.018500999
0.010939182 -0.011298499 0.004939426 -0.0071823713 0.012798321 -0.012497935 -0.013841322 -0.024270518
0.002359695 0.0072702905 0.0045110537 -0.0070360103 -0.016678125 0.015118825 -0.012430633 0.008393181
0.007659962 -0.029689923 -0.012108695 -0.012189196 0.0049657254 -0.011347446 -0.007269349 0.0051215524
-0.0057025133 -0.013042118 -0.022454565 0.0073620416 0.024992267 -0.08944072 -0.07463571 0.03805867
-0.03248011 -0.060940046 -0.021761755 -0.007328658 0.015988378 -0.116533846 0.24592093 0.26647344
-0.033593662 -0.03504354 -0.015347455 -0.028574288 0.005521481 0.06269389 -0.058207195 0.22446519
0.37157038 0.025815265 0.06076819 -0.03746153 0.017985648 0.004831508 0.0055507617 -0.017278567
-0.06248876 0.24384917 -0.030133981 -0.00392234 -0.029401878 0.012049362 0.0045182593 0.012155413
0.008738588 -0.037327398 0.052809354 -0.036004297 -0.00041742792 -0.02804985 -0.035119697 0.0036154198
0.00270844 0.0011248541 0.016171645 -0.011377057 -0.021647312 0.04568578 0.021531204 0.0014236033
0.023154339 -0.00374715 0.03055303 0.0344295 0.03474821 0.021095453 -0.01180322 -0.028217172
0.0017361591 0.022016259 0.01604846 -0.0015141484 -0.023625357 -0.031190664 -0.02553541 -0.011532618
0.010247136 -0.014185836 0.0018772722 -0.012854055 -0.01872783 0.023335721 0.007657845 0.010340568
-0.0029240723 -0.014214123 0.0033523806 0.017335882 -0.048127104 -0.0472614 -0.040947776 0.008932027
-0.023386003 0.0071705887 0.009521444 -0.008787126 0.021519251 0.005867072 0.024332896 0.012669186

model.4.bias f4 [3]
00000000: a2c5 1a3d b3e5 d9bc c740 963d
0.037786134 -0.026598787 0.07336574
